src/controller_wind_rl/ppo_model.pt (torch, 256069 bytes, 38 tensors)

log_std_parameter f4 [4]
0	0xc055ebf2	-3.342526
1	0xc02186b9	-2.5238478
2	0xc03778ce	-2.8667483
3	0xc02337e1	-2.5502856

net_container.0.weight f4 [128, 22]
0	0xbdd18e4f	-0.10232221
1	0xbe4b76d9	-0.19869556
2	0x3ea95d6b	0.33079085
3	0xbbfba947	-0.0076800915
4	0xbe85366a	-0.26018077
5	0x3bc6f435	0.006071592
6	0x3dac8f5e	0.084257826
7	0xbd5c03bc	-0.0537145
8	0x3e9b3c9b	0.30319676
9	0xbda1aa94	-0.07893863
10	0xbe64c9d2	-0.22342613
11	0x3e04134c	0.12897986
12	0xbe47cb68	-0.19511187
13	0xbbe6755b	-0.007033033
14	0x3e5ada2c	0.21372288
15	0x3ddece7e	0.10879229
16	0xbc87094d	-0.016483927
17	0x3c68921d	0.014194992
18	0xbdc4407f	-0.09582614
19	0xbcb912ab	-0.02259191
20	0x3d2091ca	0.039201535
21	0x3d854c1f	0.065086596
22	0x3e880127	0.2656338
23	0xbdee9ca1	-0.11650968
24	0xbd9913b2	-0.0747446
25	0xbd20b4f3	-0.039235067
26	0x3e0ec32a	0.13941637
27	0xbd1677af	-0.036735233
28	0x3d8e24ed	0.06940637
29	0x3eb00e58	0.34385943
30	0xbd86df2a	-0.06585534
31	0x3ccecb8c	0.025243543
32	0xbccbf3df	-0.02489656
33	0x3e1bcb22	0.15214208
34	0xbd7f9932	-0.062401958
35	0xbd7c3020	-0.061569333
36	0x3d054c73	0.03254361
37	0x3bd74cb5	0.0065704235
38	0x3d9e03e3	0.07715585
39	0xbcca0627	-0.024661137
40	0xbcb70a61	-0.022343816
41	0xbd1beb12	-0.038065977
42	0x3d8762e6	0.0661066
43	0x3d487a10	0.048944533
44	0x3d31a995	0.043374617
45	0xbea77f9e	-0.32714552
46	0x3e3b460f	0.18288444
47	0x3daa0d7a	0.08303352
48	0xbc1ff7e9	-0.009763696
49	0x3dbf3d82	0.093379036
50	0xbdd90952	-0.10597481
51	0x3e812806	0.25225848
52	0xbe4dc2e4	-0.20093876
53	0xbd51aab4	-0.051188186
54	0x3e80d2c7	0.2516081
55	0x3e7d9889	0.24765219
56	0xbd32e923	-0.043679368
57	0xbb40032d	-0.0029298768
58	0x3e092f31	0.13396908
59	0x3e1a559a	0.15071717
60	0x3c0b6013	0.008506793
61	0xbcaa5a5d	-0.020795042
62	0x3e17333f	0.14765643
63	0xbca7c0fc	-0.020477764
64	0x3db47a7c	0.088124245
65	0x3ca3f72e	0.020015325
66	0xbdbb3fbe	-0.09143017
67	0x3e6ba1b2	0.230109
68	0x3e41e8aa	0.1893641
69	0xbddd8497	-0.10816305
70	0x3db86b31	0.0900482
71	0x3d054e16	0.03254517
72	0x3d871cf9	0.06597323
73	0xbd880e18	-0.06643313
74	0xbd60340c	-0.054737136
75	0xbe96c1e0	-0.2944479
76	0xbdfaa62f	-0.12238728
77	0xbe71a637	-0.23598562
78	0xbec792a2	-0.3897906
79	0x3d32ecd9	0.043682907
80	0x3e3f38e1	0.18674041
81	0x3e1c3e53	0.1525815
82	0x3d299691	0.041403357
83	0xbd06a611	-0.032873217
84	0x3c4061cb	0.011742066
85	0xbd6c41a9	-0.057679806
86	0x3bc4e943	0.0060092523
87	0x3d7590df	0.059952613
88	0x3f12dd04	0.57368493
89	0xbf265a48	-0.6498151
90	0xbd79f600	-0.06102562
91	0xbbd8a0ee	-0.006610981
92	0x3e3ef8df	0.18649624
93	0xbddbe087	-0.107361846
94	0x3e03013c	0.1279344
95	0x3eb2c444	0.34915364
96	0x3e9b992b	0.30390295
97	0xbd30ef21	-0.0431968
98	0xbf296cbe	-0.6618155
99	0x3f058845	0.52161056
100	0x3e045b2c	0.12925404
101	0xbccffb32	-0.025388334
102	0x3e03611d	0.12830015
103	0xbc3b6e8f	-0.011439933
104	0x3d5b8705	0.05359556
105	0xbcc3ea26	-0.023915362
106	0xbdbdf7ca	-0.09275778
107	0x3cbb2214	0.022843398
108	0xbca3d119	-0.019997166
109	0x3d81f258	0.063450515
110	0x3e0c92dd	0.13727899
111	0xbebe41a9	-0.3715947
112	0xbef75c19	-0.48312452
113	0xbd8a6da8	-0.067591965
114	0xbc153f28	-0.009109296
115	0xbe4d0f92	-0.20025471
116	0x3de04d6c	0.10952267
117	0x3d5c7e30	0.05383128
118	0x3de3eec0	0.11129522
119	0x3e3cbd45	0.18431576
120	0xbe236abc	-0.15958685
121	0x3e8f0437	0.27932903
122	0x3ec971d8	0.39344668
123	0xbdb965fe	-0.090526566
124	0xbdd69dc0	-0.10479307
125	0x3c9c4388	0.01907517
126	0x3ddfc093	0.109254025
127	0x3cd2273f	0.02565348
128	0xbdb2f950	-0.08738959
129	0x3cc92e07	0.02455808
130	0xbce9bb20	-0.028531611
131	0x3d6ed0d5	0.058304626
132	0xbe304791	-0.172148
133	0x3e5ee100	0.21765518
134	0xbf21de4c	-0.63229823
135	0x3c712545	0.014718358
136	0xbd99d1c1	-0.075107105
137	0xbd98fc04	-0.07469943
138	0x3f1fed49	0.62471443
139	0x3d0413bf	0.032245394
140	0xbeb05a23	-0.3444377
141	0xbe11c838	-0.14236534
142	0x3e3cc038	0.184327
143	0x3e80b879	0.2514074
144	0x3f0a1ba9	0.53948456
145	0xbd9196b7	-0.07108825
146	0x3c45fbbb	0.012083943
147	0x3c60e853	0.013727265
148	0xbd6a5c6a	-0.05721704
149	0x3cb9b8a3	0.02267105
150	0xbd8eefd3	-0.069793366
151	0xbcd1a76b	-0.025592526
152	0x3d989c00	0.0745163
153	0x3d29d54a	0.041463174
154	0x3ccfaa20	0.025349677
155	0xbc6b1873	-0.014349091
156	0xbe0c50ab	-0.13702647
157	0x3d6f48f4	0.058419183
158	0xbc083627	-0.008313692
159	0x3dd13a47	0.10216194
160	0xbe5de61c	-0.21669811
161	0xbda24190	-0.07922661
162	0xbe46adfe	-0.1940231
163	0x3cce8a0f	0.025212316
164	0x3e4cb565	0.19991072
165	0xbd4550a3	-0.048172604
166	0xbe0f8484	-0.14015394
167	0xbe183797	-0.14864956
168	0x3decfc30	0.115715384
169	0xbcfd09d6	-0.03088848
170	0x3bd96b9f	0.006635144
171	0x3db4f324	0.08835438
172	0xbd3e353f	-0.0464375
173	0x3cb31df7	0.021864874
174	0xbd58d8a9	-0.052941
175	0x3b71a580	0.0036872327
176	0x3e0903df	0.13380383
177	0xbeab8aa3	-0.3350421
178	0xbe96ea26	-0.29475516
179	0xbb9b59d7	-0.0047409344
180	0x3bd2c149	0.006431733
181	0xbe511f06	-0.20421991
182	0xbde7cc05	-0.113182105
183	0x3e333979	0.17502393
184	0x3d888dc3	0.06667664
185	0x3dbc58fe	0.091966614
186	0xbd28ef9e	-0.04124414
187	0x3d9823df	0.07428717
188	0x3ef97725	0.48723713
189	0xbe20859e	-0.15675971
190	0x3e2ab3cd	0.16670151
191	0x3e076268	0.13221133
192	0xbd27ca50	-0.040964425
193	0xbdd73b2b	-0.10509332
194	0xbd19b407	-0.037525203
195	0xbd091483	-0.033466827
196	0x3d5cda00	0.05391884
197	0x3cf929a4	0.030415364
198	0xbdb66f15	-0.08907906
199	0x3e881873	0.26581153
200	0x3eb606db	0.35552105
201	0xbd6b23e8	-0.05740729
202	0x3d6b8e0e	0.05750852
203	0x3d9221a8	0.07135326
204	0x3e815e80	0.2526741
205	0x3d3a4fab	0.045486134
206	0xbe3b2c8a	-0.18278709
207	0xbe257d84	-0.16161162
208	0x3d88cda8	0.06679851
209	0xbef63fca	-0.48095542
210	0xbe91f88f	-0.28509948
211	0x3e2b8702	0.1675072
212	0xbe273614	-0.16329223
213	0x3e05f3f9	0.1308135
214	0x3dbb66d4	0.09150472
215	0xbd240b95	-0.040050108
216	0xbc912f41	-0.017722728
217	0x3c877393	0.016534602
218	0x3b98375a	0.0046452703
219	0xbc8f6979	-0.017506348
220	0xbe6e93e3	-0.23298602
221	0x3e8555b2	0.26041943
222	0xbcb8c568	-0.022555068
223	0xbd256303	-0.040377628
224	0xbc8c7cfe	-0.017149445
225	0x3e5ebc7f	0.21751593
226	0x3e93cb03	0.28865823
227	0xbdf3d02e	-0.119049415
228	0x3d3fa75d	0.04679047
229	0xbe21b96a	-0.15793386
230	0x3f0febd5	0.56219226
231	0xbf3a6145	-0.7280467
232	0x3d9dba7e	0.07701586
233	0x3d84ffe8	0.06494123
234	0x3b17fd37	0.00231917
235	0xbd5fee39	-0.054670546
236	0x3db6d037	0.089264326
237	0x390fd04a	0.00013715136
238	0x3db0c3e3	0.086311124
239	0x3c29fd32	0.010375308
240	0xbdbf42b4	-0.093388945
241	0xbd44aed5	-0.048018295
242	0xbeb6ef7b	-0.35729584
243	0x3ea98cba	0.33115178
244	0x3f1dd183	0.61647815
245	0x3dff8fb0	0.12478578
246	0x3cf6667c	0.030078165
247	0x3d9baf5f	0.07601809
248	0x3df3ce60	0.11904597
249	0xbd4e5f3d	-0.050383795
250	0x3d127b0a	0.03576187
251	0x3d995d33	0.074884795
252	0x3efce3f8	0.49392676
253	0xbf2b3c5e	-0.6688899
254	0xbe2f5e54	-0.17125827
255	0xbe5b07dc	-0.21389717

net_container.0.bias f4 [128]
0	0x3c717d1c	0.014739301
1	0xbd920232	-0.07129325
2	0x3e0d5f8c	0.1380598
3	0xbe3b9eb4	-0.18322259
4	0x3c3a7d68	0.011382438
5	0x3d6269f3	0.055276822
6	0xbde8f093	-0.11374011
7	0xbc8859a8	-0.016644314
8	0x3e2bd5e7	0.16780816
9	0xbdaf63a0	-0.08563924
10	0xbe49b1df	-0.19696759
11	0xbc9ce909	-0.019154089
12	0xbe014814	-0.12625152
13	0xbe5d33dc	-0.21601814
14	0x3bf3f226	0.007444638
15	0xbdd63c48	-0.104607165
16	0xbde72662	-0.11286618
17	0x3d9463df	0.072456114
18	0xbd8c8f8c	-0.06863317
19	0xbdcd5fff	-0.100280754
20	0xbea2236d	-0.31667653
21	0xbd993147	-0.07480102
22	0xbe9bbd7a	-0.30417997
23	0xbd9dc568	-0.07703668
24	0x3bfc19a5	0.0076934868
25	0x3cacfe51	0.021117361
26	0x3d969645	0.073528804
27	0xbbafc2b4	-0.0053637866
28	0xbef9753d	-0.48722258
29	0x3e6fd694	0.23421699
30	0x3dc42f51	0.095793374
31	0xbe96ed20	-0.29477787
32	0xbe9d1d78	-0.30686545
33	0xbdd15fb3	-0.10223331
34	0xbd1928db	-0.03739248
35	0xbe9a6d09	-0.30161312
36	0x3d51b303	0.05119611
37	0xbda8a1da	-0.08233996
38	0x3e5237c5	0.20529087
39	0x3d93e13a	0.07220693
40	0x3d285900	0.041100502
41	0xbd61b4ca	-0.055104055
42	0xbe399a99	-0.1812538
43	0xbe577e01	-0.2104416
44	0x3d54bf57	0.05194029
45	0x3dab6745	0.083693065
46	0x3c7edc4f	0.015555455
47	0xbe65de25	-0.22448023
48	0xbde53fde	-0.11193822
49	0xbeacf30b	-0.33779177
50	0x3da4fec7	0.080564074
51	0x3d51be6f	0.051207002
52	0xbe932e70	-0.28746367
53	0xbe9de898	-0.30841517
54	0xbdd5db7e	-0.104422554
55	0x3d9a5ef9	0.07537646
56	0xbd6fe1e0	-0.05856502
57	0xbbc68e65	-0.006059455
58	0xbeab6818	-0.33477855
59	0xbe4fd08f	-0.20294403
60	0xbd7d96cc	-0.06191139
61	0x3dd588fa	0.10426517
62	0xbd7f9b73	-0.062404107
63	0x3e005a03	0.12534337
64	0xbd7d3a94	-0.061823443
65	0xbdc52352	-0.096258774
66	0x3e3ac3b9	0.18238725
67	0x3b8aef54	0.004239956
68	0x3ca8b05f	0.020591913
69	0x3db85e4e	0.09002362
70	0xbccd5a31	-0.02506742
71	0xbd9c075d	-0.07618592
72	0xbdee1311	-0.116247304
73	0xbe2b5a0a	-0.16733566
74	0xbdeaf94e	-0.11473332
75	0xbda42f90	-0.08016884
76	0xbcaffbf9	-0.021482455
77	0xbeca13e4	-0.394683
78	0xbe3cd0d7	-0.18439041
79	0x3dce212d	0.100649215
80	0xbe50f2a2	-0.20405057
81	0x3e9b8fe6	0.30383223
82	0xbe9a4240	-0.3012867
83	0xbe647d3d	-0.223134
84	0xbcb48b4b	-0.022039076
85	0xbe1bc150	-0.15210462
86	0xbd68df01	-0.056853298
87	0x3d8be91a	0.0683157
88	0x3d5cda03	0.05391885
89	0xbeb6ad11	-0.35678914
90	0x3d7ee1ea	0.062227167
91	0x3e1829f7	0.14859758
92	0xbe8e3612	-0.27775627
93	0x3e2ef3c9	0.17085184
94	0xbe9bbac3	-0.30415925
95	0xbe665f2f	-0.22497247
96	0xbd48893e	-0.04895901
97	0x3d38fe38	0.045164317
98	0x3d89fa74	0.06737223
99	0x3d02eb78	0.03196284
100	0x3cefaa40	0.029255986
101	0xbd4798f5	-0.048729856
102	0x3e4a6b0d	0.19767399
103	0x3d1d3828	0.038383633
104	0xbe88d815	-0.26727358
105	0xbb634d4c	-0.0034683524
106	0xbd18ba78	-0.037287205
107	0xbd526488	-0.051365405
108	0xbe6aa6ea	-0.22915235
109	0x3cd1d42f	0.025613872
110	0xbe73d2a6	-0.23810825
111	0xbe592c24	-0.21208245
112	0xbec25cb4	-0.37961352
113	0xbef1f703	-0.47258767
114	0x3daf4f69	0.08560068
115	0x3e2d27e8	0.16909754
116	0xbe0fe3c2	-0.14051726
117	0x3cdf4ae3	0.027257388
118	0xbda41fdf	-0.080138914
119	0xbe341b60	-0.17588568
120	0x3de01f41	0.10943461
121	0x3def10b7	0.1167311
122	0xbf109ab7	-0.56486076
123	0xbe4f274c	-0.20229834
124	0xbec0de2a	-0.37669498
125	0xbe4bda1c	-0.19907421
126	0x3de0ef4e	0.10983144
127	0xbdf95466	-0.12174301

net_container.2.weight f4 [128, 128]
0	0x3d16cb7e	0.03681516
1	0x3c9a53f2	0.018838856
2	0xbbc3cb82	-0.0059751878
3	0xbca9577f	-0.020671604
4	0xbd1e5c49	-0.03866223
5	0xbd2502ac	-0.04028575
6	0x3cdfbe2f	0.027312366
7	0xbc3407be	-0.010988174
8	0x3b294f61	0.0025834667
9	0x3b2ddaaa	0.002652804
10	0x3bc93ff4	0.006141657
11	0xbd7df474	-0.062000707
12	0x3d606d5b	0.05479179
13	0xbd3335a2	-0.04375232
14	0x3d7c08c8	0.061531812
15	0x3a0b65a5	0.00053175754
16	0x3d6d8d07	0.057995822
17	0xbdc83f5e	-0.09777711
18	0x3da047bc	0.07826182
19	0x3d8965a4	0.067088395
20	0xbd06207b	-0.03274582
21	0x3d1f6d34	0.038922504
22	0xbd4eec9c	-0.050518617
23	0xbdeb3839	-0.11485333
24	0x3c17246c	0.009224992
25	0x3af066b9	0.0018341161
26	0x3c96b614	0.018397368
27	0xbcdca003	-0.026931768
28	0xbd9427c7	-0.072341494
29	0xbd3995b6	-0.04530879
30	0xbd8116de	-0.0630319
31	0x3d6921a1	0.056916837
32	0xbb496c8f	-0.0030734872
33	0xbd826b20	-0.06368089
34	0xbba2054a	-0.004944478
35	0x3db283a4	0.08716515
36	0xbe039618	-0.12850225
37	0x3d5def61	0.054183368
38	0x3de0eb42	0.10982372
39	0xbcee06aa	-0.029055912
40	0xbd1d151f	-0.03835022
41	0xbd11d04e	-0.035599045
42	0x3d78daea	0.060755648
43	0xbd7acb65	-0.06122913
44	0x3de59bcb	0.11211356
45	0x3d6dce09	0.05805782
46	0xbd8e5d03	-0.06951334
47	0x3c2ae499	0.0104304785
48	0x3d0c1fb7	0.034209933
49	0x3d5456a6	0.051840447
50	0xbccc0f8a	-0.024909753
51	0xba8c9d58	-0.0010728044
52	0xbd06e420	-0.0329324
53	0xbd5cd1b2	-0.05391092
54	0xbda05536	-0.07828753
55	0xbdafe6a9	-0.08588917
56	0xbdde72b6	-0.10861723
57	0xbd7f3078	-0.062302083
58	0xbd8642ce	-0.06555711
59	0x39ba25cb	0.00035504843
60	0xbafc6697	-0.0019256648
61	0xbd2c54d3	-0.042073082
62	0x3c9bc44b	0.019014498
63	0x3c9fb2f5	0.019494513
64	0xbbe2d146	-0.00692192
65	0xbc4c886d	-0.012483698
66	0x3d58b0d1	0.052903
67	0xbd32e660	-0.043676734
68	0x3d036ee5	0.03208818
69	0x3db138f8	0.08653444
70	0x3d9d2c7e	0.07674502
71	0xbd634f58	-0.05549559
72	0x3b8f1d13	0.0043674796
73	0xbc5f0e88	-0.013614304
74	0xbdf01232	-0.117222205
75	0xbd93673a	-0.07197423
76	0x3d7373fd	0.059436787
77	0x3d55e207	0.05221751
78	0x3d4d4a63	0.05011977
79	0xbd4cc5ac	-0.049993202
80	0xb9bc975f	-0.00035970935
81	0x3c6cc5e4	0.014451478
82	0xbb32cd00	-0.0027282834
83	0xbde07afa	-0.10960956
84	0x3d938017	0.072021656
85	0xbe12659d	-0.14296575
86	0x3c1e1e4c	0.009650778
87	0xbd302d35	-0.043011863
88	0x3cb99892	0.022655759
89	0xbd1122c5	-0.03543355
90	0xbd66fa4a	-0.056391038
91	0x3bdd7eb4	0.006759489
92	0x3c4b0575	0.012391438
93	0xbd2081e8	-0.03918639
94	0x3d2519d1	0.040307824
95	0xbd118074	-0.035522893
96	0xbc8a2f97	-0.016868396
97	0xbd47619b	-0.04867707
98	0x3be4f724	0.0069874693
99	0x3c4750e2	0.01216528
100	0xbc32eba9	-0.010920444
101	0xbd763466	-0.060108565
102	0xbc3661c7	-0.01113171
103	0xbc5407ff	-0.01294136
104	0xbd91516e	-0.070956096
105	0x3ca0e334	0.019639589
106	0x3a5633f3	0.0008171193
107	0xbd3657d7	-0.044517364
108	0x3db0f822	0.086410776
109	0xbcad4539	-0.021151172
110	0x3dce5464	0.1007469
111	0x3de35de8	0.111018956
112	0xbd7bfb02	-0.061518677
113	0x3dca3f0f	0.09875309
114	0xbcf30c62	-0.02966899
115	0xbd44a64d	-0.04801016
116	0x3c4a0b91	0.012331859
117	0x3d341ead	0.043974567
118	0xbd4d7b3d	-0.050166357
119	0xbce3d0b6	-0.027809482
120	0x3b7d6072	0.0038662222
121	0x3b1c86bc	0.002388402
122	0x3be3e8ec	0.0069552567
123	0xbd81d3c6	-0.06339221
124	0x3a919849	0.0011108007
125	0x3d9151d4	0.070956856
126	0xbdb3fe3b	-0.08788725
127	0x3c872a7d	0.016499752
128	0xbd03b0c8	-0.032151014
129	0xbd0da705	-0.03458311
130	0x3d97dc3f	0.074150555
131	0x3c2e9ee7	0.010658002
132	0x3db915df	0.09037375
133	0x3d8347aa	0.06410153
134	0xbc84f90c	-0.016232036
135	0xbd5f7035	-0.05455037
136	0x3cb1c14d	0.021698618
137	0x3b14269f	0.0022606028
138	0xbbb25632	-0.005442404
139	0x3c99035e	0.018678363
140	0xbd96f4c6	-0.073709056
141	0xbce20129	-0.027588444
142	0xbd27046b	-0.040775698
143	0x3c2b91af	0.010471745
144	0xbaf1f9f5	-0.0018461334
145	0xbc3a8042	-0.011383118
146	0xbc8bec6e	-0.017080512
147	0xbd8248b6	-0.06361525
148	0x3d936434	0.071968466
149	0x3d9637b0	0.0733484
150	0xbcf0d150	-0.029396683
151	0xbce93e8f	-0.028472213
152	0x3d434ef5	0.04768272
153	0x3c9043e0	0.01761049
154	0x3d26c4f4	0.040715173
155	0xbcd0685b	-0.025440386
156	0xbdb2536e	-0.08707319
157	0xbd9eb06e	-0.07748495
158	0x3c7b86ac	0.0153519325
159	0xbde153fe	-0.11002348
160	0xbd9d9b41	-0.07695628
161	0x3ae540aa	0.0017490585
162	0xbce5bbad	-0.028043592
163	0xbd9376ed	-0.07200418
164	0x3cd943b3	0.02652154
165	0xbb827463	-0.0039811595
166	0xbc92b539	-0.01790868
167	0x3d141f94	0.036162928
168	0xbd85e0e9	-0.06537039
169	0xbcbb4b04	-0.022862919
170	0x3d47f9b2	0.048822112
171	0xbcde2eb8	-0.027121887
172	0xbdc4fcb0	-0.09618509
173	0xbddd8543	-0.10816433
174	0x3cb2f3ef	0.021844832
175	0x3d73aa63	0.059488665
176	0xbd080acf	-0.033213433
177	0x3d6d953c	0.05800365
178	0xbdb9e0c0	-0.09076071
179	0xbcdef593	-0.027216708
180	0x3d3f490d	0.046700526
181	0xbd74b572	-0.059743352
182	0xbcf2c186	-0.029633295
183	0x3d482e54	0.048872307
184	0x3d347bc8	0.04406336
185	0x3b9b2025	0.0047340565
186	0x3cd99ded	0.026564563
187	0x3c800718	0.015628383
188	0xbc8312d0	-0.016000181
189	0x3d903333	0.070410155
190	0x3a048f11	0.0005056719
191	0x3d44d291	0.048052374
192	0x3d06b193	0.03288419
193	0xbce531a9	-0.027977781
194	0xbd001daf	-0.03127831
195	0xbd40d7bf	-0.04708075
196	0xbd565fb6	-0.05233737
197	0x3a12c1df	0.0005598347
198	0x3d8cd05e	0.068756804
199	0xbd11ebad	-0.03562515
200	0x3d26de19	0.040739153
201	0x3d0d02b3	0.034426402
202	0x3d94e363	0.07269933
203	0x3be0a4f3	0.006855601
204	0xbcc01a81	-0.023450138
205	0x3d3512b5	0.044207294
206	0xbd218182	-0.03943015
207	0xbd28c017	-0.041198816
208	0x3cbf5004	0.023353584
209	0xbd29a790	-0.041419566
210	0x3c95107d	0.018196339
211	0x3d3dbed9	0.046324585
212	0xbd9c8447	-0.076424174
213	0x3d4007c6	0.046882413
214	0xbbc9c2ea	-0.006157269
215	0xbc8acc04	-0.016942985
216	0x3d0b2918	0.033974737
217	0x3d8649e7	0.065570645
218	0x3d75a8ce	0.059975438
219	0x3c093127	0.008373535
220	0x3d3199f0	0.043359697
221	0x3d4ba2a7	0.049715664
222	0x3c8e56a8	0.017375305
223	0x3d615ea8	0.05502191
224	0x3c9e1640	0.019297719
225	0x3bc5fa87	0.006041828
226	0x3d240d1c	0.040051565
227	0xbb5c2c46	-0.0033595725
228	0x3cdb8691	0.026797565
229	0xbd3c6d8f	-0.04600292
230	0x3d17cca3	0.03706039
231	0xbcdee1d2	-0.027207289
232	0xbdb0bbc2	-0.08629562
233	0xbdbb7b66	-0.09154396
234	0x3d48e509	0.04904655
235	0x3dc09cb2	0.09404887
236	0xbd85e174	-0.065371424
237	0x3cfebb4c	0.03109517
238	0x3dd4a571	0.10383118
239	0xbc04a583	-0.008096102
240	0x3ddf3a85	0.108998336
241	0xbd3f3e28	-0.046690136
242	0x3dbf68bb	0.093461476
243	0x3d807682	0.062726036
244	0xbdea81b7	-0.114505224
245	0x3c4d5db2	0.012534546
246	0xbb0a070a	-0.0021061325
247	0x3d42f756	0.04759916
248	0x3dc05ce6	0.09392719
249	0xbd196c75	-0.03745695
250	0x3d024c73	0.03181119
251	0xbd7e340f	-0.062061366
252	0x3d456628	0.048193127
253	0x3d11b05f	0.03556859
254	0xbcfc7715	-0.030818501
255	0xbd831c8a	-0.06401928

net_container.2.bias f4 [128]
0	0xba31cc1a	-0.00067824277
1	0xbb13517e	-0.0022478993
2	0x3d6d837e	0.05798673
3	0xbd754d01	-0.05988789
4	0x3ca435e1	0.020045223
5	0xbcd77011	-0.026298555
6	0x3d9c55f8	0.07633585
7	0xbc8a8d1d	-0.016912991
8	0xbd6b33d5	-0.057422478
9	0x3a169654	0.00057444465
10	0x3d3a6706	0.045508407
11	0x3cfaed2b	0.030630669
12	0x3d02f9af	0.031976398
13	0x3ccbcb8d	0.024877334
14	0x3d88207e	0.066468224
15	0xbcec77cb	-0.028865715
16	0x3bf9d9f4	0.007624859
17	0xbdc14ce4	-0.09438494
18	0xbe05fd8c	-0.13085002
19	0x3c098a49	0.008394786
20	0xbc40b393	-0.011761564
21	0x3d90e8aa	0.07075627
22	0xbe282b81	-0.16422845
23	0xbdd6efe7	-0.104949765
24	0x3c86c64c	0.016451977
25	0xbda8d7c6	-0.082442805
26	0x3d2b3eee	0.04180806
27	0x3d4214eb	0.04738323
28	0xbd68ce56	-0.056837402
29	0xbedc42a4	-0.43019593
30	0xbeb5cd14	-0.35508025
31	0x3dc6e26b	0.097111546
32	0xbd489b22	-0.04897607
33	0x3d97bb46	0.074087664
34	0xbcb1d645	-0.021708617
35	0x3cd7796a	0.026303012
36	0x3a65ac08	0.00087612914
37	0x3d935234	0.071934134
38	0xbc0b2586	-0.008492833
39	0x3e23683a	0.15957728
40	0x3d636a3b	0.05552123
41	0x3de988f4	0.11403075
42	0x3dca55d8	0.09879655
43	0xbcee9744	-0.029124863
44	0x3d8525db	0.06501361
45	0xbd5d8e9b	-0.054091077
46	0x3ac08e7c	0.0014690901
47	0xbd3a4846	-0.04547908
48	0x3dcb1486	0.09916024
49	0xbd331d88	-0.043729335
50	0x3d927dd8	0.07152909
51	0xbcdad5c0	-0.026713252
52	0xbd0b8cbc	-0.03406976
53	0xbdf811a8	-0.12112743
54	0x3b7334be	0.0037110294
55	0xbeb9eb47	-0.36312315
56	0xbdfb5df3	-0.12273779
57	0xbd7aa21f	-0.061189767
58	0xbcdfa044	-0.0272981
59	0xbd2fe79b	-0.042945486
60	0x3d1cb639	0.03825972
61	0x3e4851de	0.1956248
62	0xbd30d730	-0.04317397
63	0x3c7aabd9	0.015299761
64	0xbe9f2193	-0.31080303
65	0x3d352932	0.04422874
66	0x3d33920c	0.043840453
67	0xbeead4d7	-0.4586551
68	0xbcc8b277	-0.024499161
69	0xbd230a88	-0.039804965
70	0xbd41b51a	-0.047291853
71	0xbd8c75d2	-0.0685841
72	0x3d6f2e6e	0.05839389
73	0xbe882dad	-0.26597348
74	0xbd759b0f	-0.05996233
75	0xbdc1b818	-0.09458941
76	0xbdef71fe	-0.11691664
77	0x3e2382c3	0.1596785
78	0xbd5fce50	-0.054640114
79	0xbd8708d7	-0.06593483
80	0xbd78382f	-0.060600456
81	0xbe30f27c	-0.1728
82	0xbdff8bf7	-0.12477868
83	0xbd3ede55	-0.04659875
84	0x3d11a291	0.035555426
85	0x3d1a5d64	0.03768672
86	0x3d6042c1	0.05475116
87	0x3df79e62	0.12090756
88	0xbbc6fc5c	-0.006072564
89	0x3d1e120b	0.038591426
90	0xbeaf041e	-0.3418283
91	0x3de7eae6	0.113241
92	0xbcba5c7f	-0.022749184
93	0x3d2edc4d	0.042690564
94	0xbd48dc4d	-0.04903822
95	0xbd6b3405	-0.057422657
96	0xbd67d400	-0.056598663
97	0xbe1dc9f4	-0.1540907
98	0x3d942392	0.07233347
99	0xbd7af094	-0.06126459
100	0xbe0ceb06	-0.1376153
101	0xbe66e100	-0.22546768
102	0x3df85071	0.12124718
103	0xbcd5b342	-0.026086453
104	0xbd780741	-0.060553793
105	0x3c73b7f6	0.014875403
106	0xbdb7d177	-0.08975499
107	0xbe100f17	-0.14068256
108	0xbda2aac2	-0.07942726
109	0xbe0068c1	-0.1253996
110	0xbd906b77	-0.07051747
111	0x3cf9716a	0.030449588
112	0x3e842146	0.25806636
113	0x3b73e9ed	0.0037218288
114	0xbd90d732	-0.07072295
115	0x3d9f53ce	0.07779656
116	0xbdba8382	-0.091071144
117	0xbf3339c3	-0.7001001
118	0xba577cb5	-0.0008220182
119	0x3d364e5a	0.044508316
120	0xbe6d011b	-0.23144953
121	0x3c2c6d4d	0.010524106
122	0xbcbdb09a	-0.0231555
123	0x3e5b7e42	0.21434882
124	0x3da23d2d	0.079218246
125	0x3dc22154	0.09479013
126	0xbe363bad	-0.17796202
127	0xbdb2e8f9	-0.08735842

policy_layer.weight f4 [4, 128]
0	0xbb4fd151	-0.0031710456
1	0x39b3bf96	0.00034284283
2	0x3c09e1bc	0.008415636
3	0x3a97459d	0.0011541132
4	0xba555a8a	-0.00081387965
5	0x3ad52918	0.0016262857
6	0xba81c7f3	-0.0009901508
7	0x3b664443	0.0035135902
8	0xba5129dd	-0.00079789554
9	0x3afb23a2	0.00191604
10	0x3a326f3a	0.0006806735
11	0x3b6e25e4	0.0036338503
12	0xbbaa4576	-0.0051962687
13	0x3b72aab1	0.003702801
14	0x3b49a8bc	0.003077074
15	0x3ad54044	0.0016269763
16	0xba3dbe43	-0.0007238129
17	0xbbd3e0b7	-0.006465997
18	0x3adf89b7	0.0017054592
19	0x3b060744	0.0020451108
20	0x3a28b307	0.00064353686
21	0xbaba4e77	-0.0014214058
22	0xbae7a604	-0.0017673378
23	0x3be8fe34	0.0071103815
24	0xbc8d15e9	-0.017222362
25	0xb99e2150	-0.00030160928
26	0xba6f4616	-0.000912757
27	0x3bbb7326	0.005720514
28	0x3ae702d6	0.0017624747
29	0x3bf5027e	0.0074771037
30	0xbc9f48a8	-0.019443825
31	0xbb32e314	-0.0027295994
32	0xbc8b2090	-0.0169833
33	0xbbf8599d	-0.007579042
34	0x3b2e127a	0.0026561306
35	0x3b34b747	0.0027575062
36	0x3a91c16b	0.0011120265
37	0x3b010a49	0.0019689968
38	0xbb97fb0d	-0.004638082
39	0xb9d8685d	-0.00041276487
40	0x3ab77d78	0.0013999185
41	0xbc6954f4	-0.014241446
42	0xb987647f	-0.00025824082
43	0x3b60713a	0.0034247176
44	0xbbfabb42	-0.0076517174
45	0x3ac127c3	0.0014736581
46	0x3b52aef9	0.003214775
47	0x3a793809	0.0009506946
48	0x3b6051b1	0.003422838
49	0x3a0ae3be	0.00052982185
50	0xbb838a69	-0.0040143025
51	0xba9e6d01	-0.0012086929
52	0x3b178b2e	0.002312373
53	0xbbd7b529	-0.0065828753
54	0x3a9115e3	0.0011069145
55	0x3ccebbfb	0.02523612
56	0x3b8ec1b4	0.0043565873
57	0xbb6db758	-0.0036272611
58	0x3b47cf71	0.0030488635
59	0x3b3a50b5	0.0028429453
60	0x3bb054e1	0.005381212
61	0xbd49791b	-0.04918776
62	0x3bac8920	0.00526537
63	0xbacf06f8	-0.0015794924
64	0xbce19558	-0.027537033
65	0x3b8bd46d	0.0042672665
66	0xbb9010b5	-0.004396523
67	0x3d6b8976	0.05750414
68	0x3701584e	7.709559e-06
69	0x3b799e34	0.0038088681
70	0xb8be9eae	-9.0894624e-05
71	0x3a1c26a7	0.00059566874
72	0xbb66dbad	-0.0035226152
73	0xbba5d79d	-0.0050611035
74	0x3bad5300	0.0052894354
75	0x3b89c49e	0.004204347
76	0x3bcdbf84	0.006278934
77	0xbc0b8fcb	-0.00851817
78	0xbb2edb70	-0.0026681088
79	0xb97d6710	-0.00024166354
80	0x3b68812e	0.0035477388
81	0x3b383b19	0.0028111397
82	0x3bb3a216	0.0054819686
83	0x3c19de56	0.009391388
84	0xba073fcc	-0.0005159348
85	0x3b028388	0.0019914825
86	0xbbc870ff	-0.006116986
87	0xbc158f6c	-0.009128433
88	0x3b4b00be	0.0030975784
89	0x3ac7e354	0.0015250244
90	0x3e3e95a0	0.18611765
91	0x3b011eef	0.0019702276
92	0xbbb92032	-0.00564959
93	0x38fc963c	0.0001204428
94	0x3ba10b1c	0.0049146544
95	0xba242c8c	-0.00062627415
96	0x3b967452	0.004591503
97	0x3b5fff71	0.0034179355
98	0xbbc86c4d	-0.006116426
99	0x3bbcae9e	0.0057581207
100	0x3d0e9231	0.034807388
101	0x3d1ae97f	0.037820335
102	0x3b7dc981	0.0038724842
103	0xbae69f73	-0.0017595127
104	0xbac02aef	-0.0014661233
105	0x3b6864f0	0.0035460554
106	0x3b1e8bfc	0.0024192324
107	0xbb43d139	-0.0029879345
108	0x3abdf8b0	0.001449367
109	0xbbf94aca	-0.0076077925
110	0x3b5c2b41	0.0033595117
111	0x3b677466	0.0035317182
112	0xbd4e90d5	-0.05043109
113	0xbab63d0b	-0.001390369
114	0xbb366e09	-0.0027836582
115	0x3b9dcd12	0.004815706
116	0x3b54259d	0.0032371052
117	0x3ea8fb37	0.33004162
118	0x3b4aefe3	0.0030965738
119	0xb6ff308a	-7.605243e-06
120	0x3ba2afb9	0.0049647954
121	0x3ad52721	0.0016262272
122	0x3b17f4c9	0.0023186675
123	0xbd84aad9	-0.06477899
124	0xbb8ab168	-0.0042325743
125	0xb8fde5c1	-0.00012106775
126	0x3bb598e7	0.005541909
127	0x3bbbfbaa	0.005736788
128	0xbbebd2ce	-0.0071967607
129	0x3bc44432	0.005989575
130	0xbc4f41f9	-0.012650006
131	0x3b80b966	0.003928351
132	0x3ba193a2	0.0049309293
133	0xbbc12280	-0.0058940053
134	0xba5592ad	-0.00081471616
135	0x3b8f8d11	0.00438083
136	0xbba493c4	-0.005022498
137	0x398acaaf	0.00026472422
138	0x3b8d257b	0.0043074465
139	0xb8ad417b	-8.2614795e-05
140	0xbbaeee56	-0.0053384705
141	0x3b606536	0.0034240014
142	0x3bbf70fa	0.0058423253
143	0x3bd97dd7	0.0066373157
144	0x3b80ccfa	0.003930685
145	0xbc268efc	-0.010165926
146	0x3b4c6f53	0.0031194284
147	0xbb302b38	-0.002688123
148	0x3a62d7de	0.00086533825
149	0x3bb29dc3	0.0054509356
150	0x3d0042b5	0.031313617
151	0xbb8b6017	-0.004253398
152	0x3d9ad8f0	0.07560909
153	0x3b4d3ff0	0.0031318627
154	0x3ac7c5b8	0.001524142
155	0xbb555ed8	-0.0032557752
156	0x3b43f6d3	0.0029901757
157	0xbbf25046	-0.0073948232
158	0x3d983daa	0.074336365
159	0x3b10a623	0.0022071681
160	0x3d6866e5	0.056738753
161	0xbb0baf57	-0.0021314227
162	0xb974b2cb	-0.00023336259
163	0x3bfe4d59	0.0077606854
164	0x3bdc643e	0.006725817
165	0xbbe5bd37	-0.0070110816
166	0xb9add613	-0.0003315663
167	0x3ac34b25	0.0014899714
168	0x3b9ef827	0.0048513594
169	0xbd730aa0	-0.059336305
170	0xbba51ac3	-0.0050385906
171	0x3be454b7	0.0069681066
172	0xbd15f5d6	-0.0366114
173	0xb9633cb4	-0.0002167102
174	0x3b842389	0.0040325564
175	0xbbcc92b6	-0.0062430752
176	0x39b49848	0.00034445734
177	0x3aa6615e	0.0012693813
178	0xbb6fe5a9	-0.0036605394
179	0x3bdc5354	0.0067238007
180	0x3b6796b2	0.0035337624
181	0xba80b1f5	-0.000981866
182	0xbb908dda	-0.0044114413
183	0x3b5c8f4d	0.003365475
184	0xbb5e22d0	-0.0033895262
185	0x3b8b4994	0.0042507146
186	0xbbb6ade1	-0.005574927
187	0xbae3e29e	-0.0017386263
188	0xbb90744e	-0.004408396
189	0xbc594df6	-0.013263216
190	0x3afbd9a1	0.0019214639
191	0xbb8fd550	-0.0043894425
192	0x3ce23924	0.027615137
193	0x39df88d5	0.00042635822
194	0x3b2ae949	0.002607899
195	0xbdf7a79e	-0.12092517
196	0xbbe56dd8	-0.00700162
197	0x3b54f064	0.0032491917
198	0xbca18578	-0.019716963
199	0x3b5af48f	0.0033409928
200	0xba36cd2d	-0.00069733226
201	0xbd52cb62	-0.051463492
202	0x3c0648ca	0.008196065
203	0xbb95c982	-0.0045711407
204	0x3ba80bd3	0.0051283627
205	0xbd0b5ded	-0.03402512
206	0xbb4b197d	-0.0030990534
207	0x39750af9	0.00023369108
208	0xba88e7b4	-0.001044503
209	0xbbfe34e8	-0.0077577718
210	0xb90b16f7	-0.00013264628
211	0xbb91454b	-0.004433309
212	0xbb9b7f35	-0.004745389
213	0xbacbbc89	-0.0015543859
214	0x3a0cca0d	0.0005370684
215	0x3b5c5bcd	0.0033624053
216	0x39bce1ec	0.0003602648
217	0x3b0e9867	0.002175832
218	0xbde67da4	-0.11254433
219	0xba83de16	-0.0010060694
220	0xbbee25bf	-0.0072676833
221	0xbb073adc	-0.0020634448
222	0xbc70565c	-0.014669027
223	0x3c2c832d	0.010529322
224	0x3c0c810a	0.008575687
225	0x3b12c0f7	0.0022392848
226	0x3c7b7f49	0.015350171
227	0xba51e0d4	-0.0008006219
228	0x3d8f69ff	0.07002639
229	0x3d123eff	0.03570461
230	0xba426c4d	-0.0007416651
231	0xbc30de82	-0.0107952375
232	0xbbafb26f	-0.005361847
233	0xbb5f0e69	-0.0034035689
234	0x38960d75	7.155064e-05
235	0xbb6c04b8	-0.0036013555
236	0xbbebb292	-0.007192918
237	0xbd680f40	-0.05665517
238	0xbb7d91f8	-0.003869174
239	0xbad51551	-0.0016256963
240	0x3d8ed7f6	0.06974785
241	0x3babdbd4	0.0052447114
242	0xbb8f26e3	-0.0043686493
243	0xbbae9825	-0.0053281956
244	0xbb996f71	-0.0046824743
245	0x3d4a2ab3	0.049357127
246	0x37089735	8.141437e-06
247	0xbbc794c7	-0.0060907337
248	0x3af6adcd	0.0018820107
249	0xbc2a29cc	-0.010385942
250	0xbb3e4fcb	-0.002903926
251	0xbe5235bf	-0.20528315
252	0xbb277fe2	-0.0025558402
253	0x3ba3dc92	0.0050006593
254	0xbb1a11f0	-0.0023509227
255	0xbbdc3b76	-0.0067209555

policy_layer.bias f4 [4]
0	0xbe91d1b4	-0.28480303
1	0xbdf1e69d	-0.11811564
2	0x3c97b432	0.018518541
3	0x3d9bda8f	0.07610046

value_layer.weight f4 [1, 128]
0	0x3c001006	0.00781632
1	0x3c20084a	0.009767601
2	0x3c10c583	0.008836153
3	0xbb5b0f8b	-0.0033426012
4	0x3cf4d92b	0.02988871
5	0x3c1ee183	0.009697321
6	0x3c9e62d1	0.019334229
7	0x3bef23b2	0.0072979564
8	0xbbadf50b	-0.0053087524
9	0x3c08a4b7	0.008340052
10	0x397d2b40	0.00024144072
11	0x3dc60a4d	0.096699335
12	0x3c9564b5	0.018236497
13	0xbcad09b8	-0.021122798
14	0xbb4a2689	-0.0030845723
15	0xbd5186e6	-0.05115404
16	0xbb83973a	-0.0040158303
17	0xbda8102a	-0.08206208
18	0x3a2866ed	0.00064240285
19	0x3cd3636b	0.025804242
20	0x3aa636fa	0.0012681179
21	0xbc8c148b	-0.01709964
22	0xbd19b6e8	-0.03752795
23	0xbd90ad78	-0.070643365
24	0x3d1154c1	0.03548122
25	0xbc569129	-0.013096132
26	0x3c7196e4	0.014745448
27	0x3bfb7efd	0.0076750503
28	0xbc6c5bee	-0.014426215
29	0xbe4931c2	-0.19647887
30	0xbd81081b	-0.06300374
31	0x3cf1d956	0.02952258
32	0xbc1afd21	-0.009459765
33	0x3cbfaf63	0.02339906
34	0x3ba6b7a3	0.005087809
35	0xbb912224	-0.0044291187
36	0xbd684497	-0.056706037
37	0x3d423d23	0.047421586
38	0x3c3bf0d1	0.011470989
39	0x3db593e3	0.08866098
40	0x3b977bfa	0.0046229335
41	0xbc6e22a3	-0.014534625
42	0x3d886b47	0.066610865
43	0xbbee8ba4	-0.00727983
44	0xbae5ef28	-0.0017542588
45	0x3c472cdb	0.0121566905
46	0xbd11c4d2	-0.035588093
47	0x3b92ebc3	0.0044836714
48	0x3c40d5b2	0.011769699
49	0xbba97c76	-0.0051723076
50	0x3cd89aa3	0.026440924
51	0xbcaff42c	-0.021478735
52	0xbbd4dce7	-0.00649606
53	0x3c4b771f	0.012418537
54	0x3be35564	0.0069376696
55	0xbe4a9bb5	-0.1978596
56	0x3dbf968f	0.09354889
57	0xbc911fde	-0.01771539
58	0xbcfdd676	-0.030986052
59	0x3d110765	0.035407443
60	0x3d928287	0.07153802
61	0x3d758a24	0.059946194
62	0xbbbe665f	-0.0058105434
63	0x3de09747	0.10966354
64	0xbc703433	-0.014660883
65	0x3daacc4c	0.08339748
66	0x3d3e28fd	0.04642581
67	0xbdb41dfa	-0.0879478
68	0xbad83b2f	-0.001649713
69	0xbe1279b1	-0.14304234
70	0x3d18223e	0.03714203
71	0x3ca52754	0.020160355
72	0x3c98909d	0.018623644
73	0xbd860604	-0.06544116
74	0xbdc549e4	-0.09633234
75	0x3cad4174	0.021149375
76	0x3dac5b54	0.08415857
77	0x3ceeb191	0.029137405
78	0x3bb3504c	0.0054722186
79	0x3d34498e	0.04401546
80	0x3ba293b9	0.0049614576
81	0x3cc1184d	0.023571158
82	0xbb6b97e5	-0.003594869
83	0xbd0802ed	-0.033205915
84	0x3d4186ec	0.047247812
85	0x3d1d7246	0.038439058
86	0x3dcd3088	0.10019022
87	0xbe3f43d5	-0.1867822
88	0xbc1c50a9	-0.009540715
89	0x3d083cec	0.033261225
90	0x3ca34192	0.019928727
91	0x3d4aaf84	0.04948379
92	0xbdf480cb	-0.11938628
93	0x3d5087b1	0.050910655
94	0xbd09dbb8	-0.033656806
95	0xbc9fa5c7	-0.019488228
96	0xbd4f4da1	-0.050611142
97	0x3c6d5e4a	0.014487812
98	0x3d175f25	0.03695597
99	0x3d5215a1	0.05129016
100	0x3cbb2abc	0.022847526
101	0x3bd2c78b	0.006432479
102	0x3db18220	0.086673975
103	0xbbf542f8	-0.00748479
104	0x3bd37230	0.006452821
105	0x3dc1eaaa	0.09468587
106	0x3cb245ef	0.021761863
107	0x3c22573e	0.0099084955
108	0x3d543d41	0.05181623
109	0xbc16b0d2	-0.009197431
110	0x3db7b32e	0.08969723
111	0x3d34c150	0.04412967
112	0x3de402ab	0.111333214
113	0xbc270b61	-0.010195584
114	0xbd7b53cc	-0.06135921
115	0x3d97a88e	0.07405196
116	0x3bb16230	0.005413316
117	0xbda70b15	-0.081564106
118	0xbdbb9bff	-0.09160613
119	0xbb6e5c8d	-0.0036371083
120	0xbd418218	-0.047243208
121	0xbb7b2034	-0.0038318755
122	0xbc91597e	-0.017742869
123	0x3c8b9f2f	0.017043678
124	0x3ce2b298	0.02767305
125	0x3d80c3ab	0.06287321
126	0xbdbbd858	-0.09172124
127	0x3ccee332	0.02525482

log_std_parameter f4 [4]
0	0xc055ebf2	-3.342526
1	0xc02186b9	-2.5238478
2	0xc03778ce	-2.8667483
3	0xc02337e1	-2.5502856

net_container.0.weight f4 [128, 22]
0	0xbdd18e4f	-0.10232221
1	0xbe4b76d9	-0.19869556
2	0x3ea95d6b	0.33079085
3	0xbbfba947	-0.0076800915
4	0xbe85366a	-0.26018077
5	0x3bc6f435	0.006071592
6	0x3dac8f5e	0.084257826
7	0xbd5c03bc	-0.0537145
8	0x3e9b3c9b	0.30319676
9	0xbda1aa94	-0.07893863
10	0xbe64c9d2	-0.22342613
11	0x3e04134c	0.12897986
12	0xbe47cb68	-0.19511187
13	0xbbe6755b	-0.007033033
14	0x3e5ada2c	0.21372288
15	0x3ddece7e	0.10879229
16	0xbc87094d	-0.016483927
17	0x3c68921d	0.014194992
18	0xbdc4407f	-0.09582614
19	0xbcb912ab	-0.02259191
20	0x3d2091ca	0.039201535
21	0x3d854c1f	0.065086596
22	0x3e880127	0.2656338
23	0xbdee9ca1	-0.11650968
24	0xbd9913b2	-0.0747446
25	0xbd20b4f3	-0.039235067
26	0x3e0ec32a	0.13941637
27	0xbd1677af	-0.036735233
28	0x3d8e24ed	0.06940637
29	0x3eb00e58	0.34385943
30	0xbd86df2a	-0.06585534
31	0x3ccecb8c	0.025243543
32	0xbccbf3df	-0.02489656
33	0x3e1bcb22	0.15214208
34	0xbd7f9932	-0.062401958
35	0xbd7c3020	-0.061569333
36	0x3d054c73	0.03254361
37	0x3bd74cb5	0.0065704235
38	0x3d9e03e3	0.07715585
39	0xbcca0627	-0.024661137
40	0xbcb70a61	-0.022343816
41	0xbd1beb12	-0.038065977
42	0x3d8762e6	0.0661066
43	0x3d487a10	0.048944533
44	0x3d31a995	0.043374617
45	0xbea77f9e	-0.32714552
46	0x3e3b460f	0.18288444
47	0x3daa0d7a	0.08303352
48	0xbc1ff7e9	-0.009763696
49	0x3dbf3d82	0.093379036
50	0xbdd90952	-0.10597481
51	0x3e812806	0.25225848
52	0xbe4dc2e4	-0.20093876
53	0xbd51aab4	-0.051188186
54	0x3e80d2c7	0.2516081
55	0x3e7d9889	0.24765219
56	0xbd32e923	-0.043679368
57	0xbb40032d	-0.0029298768
58	0x3e092f31	0.13396908
59	0x3e1a559a	0.15071717
60	0x3c0b6013	0.008506793
61	0xbcaa5a5d	-0.020795042
62	0x3e17333f	0.14765643
63	0xbca7c0fc	-0.020477764
64	0x3db47a7c	0.088124245
65	0x3ca3f72e	0.020015325
66	0xbdbb3fbe	-0.09143017
67	0x3e6ba1b2	0.230109
68	0x3e41e8aa	0.1893641
69	0xbddd8497	-0.10816305
70	0x3db86b31	0.0900482
71	0x3d054e16	0.03254517
72	0x3d871cf9	0.06597323
73	0xbd880e18	-0.06643313
74	0xbd60340c	-0.054737136
75	0xbe96c1e0	-0.2944479
76	0xbdfaa62f	-0.12238728
77	0xbe71a637	-0.23598562
78	0xbec792a2	-0.3897906
79	0x3d32ecd9	0.043682907
80	0x3e3f38e1	0.18674041
81	0x3e1c3e53	0.1525815
82	0x3d299691	0.041403357
83	0xbd06a611	-0.032873217
84	0x3c4061cb	0.011742066
85	0xbd6c41a9	-0.057679806
86	0x3bc4e943	0.0060092523
87	0x3d7590df	0.059952613
88	0x3f12dd04	0.57368493
89	0xbf265a48	-0.6498151
90	0xbd79f600	-0.06102562
91	0xbbd8a0ee	-0.006610981
92	0x3e3ef8df	0.18649624
93	0xbddbe087	-0.107361846
94	0x3e03013c	0.1279344
95	0x3eb2c444	0.34915364
96	0x3e9b992b	0.30390295
97	0xbd30ef21	-0.0431968
98	0xbf296cbe	-0.6618155
99	0x3f058845	0.52161056
100	0x3e045b2c	0.12925404
101	0xbccffb32	-0.025388334
102	0x3e03611d	0.12830015
103	0xbc3b6e8f	-0.011439933
104	0x3d5b8705	0.05359556
105	0xbcc3ea26	-0.023915362
106	0xbdbdf7ca	-0.09275778
107	0x3cbb2214	0.022843398
108	0xbca3d119	-0.019997166
109	0x3d81f258	0.063450515
110	0x3e0c92dd	0.13727899
111	0xbebe41a9	-0.3715947
112	0xbef75c19	-0.48312452
113	0xbd8a6da8	-0.067591965
114	0xbc153f28	-0.009109296
115	0xbe4d0f92	-0.20025471
116	0x3de04d6c	0.10952267
117	0x3d5c7e30	0.05383128
118	0x3de3eec0	0.11129522
119	0x3e3cbd45	0.18431576
120	0xbe236abc	-0.15958685
121	0x3e8f0437	0.27932903
122	0x3ec971d8	0.39344668
123	0xbdb965fe	-0.090526566
124	0xbdd69dc0	-0.10479307
125	0x3c9c4388	0.01907517
126	0x3ddfc093	0.109254025
127	0x3cd2273f	0.02565348
128	0xbdb2f950	-0.08738959
129	0x3cc92e07	0.02455808
130	0xbce9bb20	-0.028531611
131	0x3d6ed0d5	0.058304626
132	0xbe304791	-0.172148
133	0x3e5ee100	0.21765518
134	0xbf21de4c	-0.63229823
135	0x3c712545	0.014718358
136	0xbd99d1c1	-0.075107105
137	0xbd98fc04	-0.07469943
138	0x3f1fed49	0.62471443
139	0x3d0413bf	0.032245394
140	0xbeb05a23	-0.3444377
141	0xbe11c838	-0.14236534
142	0x3e3cc038	0.184327
143	0x3e80b879	0.2514074
144	0x3f0a1ba9	0.53948456
145	0xbd9196b7	-0.07108825
146	0x3c45fbbb	0.012083943
147	0x3c60e853	0.013727265
148	0xbd6a5c6a	-0.05721704
149	0x3cb9b8a3	0.02267105
150	0xbd8eefd3	-0.069793366
151	0xbcd1a76b	-0.025592526
152	0x3d989c00	0.0745163
153	0x3d29d54a	0.041463174
154	0x3ccfaa20	0.025349677
155	0xbc6b1873	-0.014349091
156	0xbe0c50ab	-0.13702647
157	0x3d6f48f4	0.058419183
158	0xbc083627	-0.008313692
159	0x3dd13a47	0.10216194
160	0xbe5de61c	-0.21669811
161	0xbda24190	-0.07922661
162	0xbe46adfe	-0.1940231
163	0x3cce8a0f	0.025212316
164	0x3e4cb565	0.19991072
165	0xbd4550a3	-0.048172604
166	0xbe0f8484	-0.14015394
167	0xbe183797	-0.14864956
168	0x3decfc30	0.115715384
169	0xbcfd09d6	-0.03088848
170	0x3bd96b9f	0.006635144
171	0x3db4f324	0.08835438
172	0xbd3e353f	-0.0464375
173	0x3cb31df7	0.021864874
174	0xbd58d8a9	-0.052941
175	0x3b71a580	0.0036872327
176	0x3e0903df	0.13380383
177	0xbeab8aa3	-0.3350421
178	0xbe96ea26	-0.29475516
179	0xbb9b59d7	-0.0047409344
180	0x3bd2c149	0.006431733
181	0xbe511f06	-0.20421991
182	0xbde7cc05	-0.113182105
183	0x3e333979	0.17502393
184	0x3d888dc3	0.06667664
185	0x3dbc58fe	0.091966614
186	0xbd28ef9e	-0.04124414
187	0x3d9823df	0.07428717
188	0x3ef97725	0.48723713
189	0xbe20859e	-0.15675971
190	0x3e2ab3cd	0.16670151
191	0x3e076268	0.13221133
192	0xbd27ca50	-0.040964425
193	0xbdd73b2b	-0.10509332
194	0xbd19b407	-0.037525203
195	0xbd091483	-0.033466827
196	0x3d5cda00	0.05391884
197	0x3cf929a4	0.030415364
198	0xbdb66f15	-0.08907906
199	0x3e881873	0.26581153
200	0x3eb606db	0.35552105
201	0xbd6b23e8	-0.05740729
202	0x3d6b8e0e	0.05750852
203	0x3d9221a8	0.07135326
204	0x3e815e80	0.2526741
205	0x3d3a4fab	0.045486134
206	0xbe3b2c8a	-0.18278709
207	0xbe257d84	-0.16161162
208	0x3d88cda8	0.06679851
209	0xbef63fca	-0.48095542
210	0xbe91f88f	-0.28509948
211	0x3e2b8702	0.1675072
212	0xbe273614	-0.16329223
213	0x3e05f3f9	0.1308135
214	0x3dbb66d4	0.09150472
215	0xbd240b95	-0.040050108
216	0xbc912f41	-0.017722728
217	0x3c877393	0.016534602
218	0x3b98375a	0.0046452703
219	0xbc8f6979	-0.017506348
220	0xbe6e93e3	-0.23298602
221	0x3e8555b2	0.26041943
222	0xbcb8c568	-0.022555068
223	0xbd256303	-0.040377628
224	0xbc8c7cfe	-0.017149445
225	0x3e5ebc7f	0.21751593
226	0x3e93cb03	0.28865823
227	0xbdf3d02e	-0.119049415
228	0x3d3fa75d	0.04679047
229	0xbe21b96a	-0.15793386
230	0x3f0febd5	0.56219226
231	0xbf3a6145	-0.7280467
232	0x3d9dba7e	0.07701586
233	0x3d84ffe8	0.06494123
234	0x3b17fd37	0.00231917
235	0xbd5fee39	-0.054670546
236	0x3db6d037	0.089264326
237	0x390fd04a	0.00013715136
238	0x3db0c3e3	0.086311124
239	0x3c29fd32	0.010375308
240	0xbdbf42b4	-0.093388945
241	0xbd44aed5	-0.048018295
242	0xbeb6ef7b	-0.35729584
243	0x3ea98cba	0.33115178
244	0x3f1dd183	0.61647815
245	0x3dff8fb0	0.12478578
246	0x3cf6667c	0.030078165
247	0x3d9baf5f	0.07601809
248	0x3df3ce60	0.11904597
249	0xbd4e5f3d	-0.050383795
250	0x3d127b0a	0.03576187
251	0x3d995d33	0.074884795
252	0x3efce3f8	0.49392676
253	0xbf2b3c5e	-0.6688899
254	0xbe2f5e54	-0.17125827
255	0xbe5b07dc	-0.21389717

net_container.0.bias f4 [128]
0	0x3c717d1c	0.014739301
1	0xbd920232	-0.07129325
2	0x3e0d5f8c	0.1380598
3	0xbe3b9eb4	-0.18322259
4	0x3c3a7d68	0.011382438
5	0x3d6269f3	0.055276822
6	0xbde8f093	-0.11374011
7	0xbc8859a8	-0.016644314
8	0x3e2bd5e7	0.16780816
9	0xbdaf63a0	-0.08563924
10	0xbe49b1df	-0.19696759
11	0xbc9ce909	-0.019154089
12	0xbe014814	-0.12625152
13	0xbe5d33dc	-0.21601814
14	0x3bf3f226	0.007444638
15	0xbdd63c48	-0.104607165
16	0xbde72662	-0.11286618
17	0x3d9463df	0.072456114
18	0xbd8c8f8c	-0.06863317
19	0xbdcd5fff	-0.100280754
20	0xbea2236d	-0.31667653
21	0xbd993147	-0.07480102
22	0xbe9bbd7a	-0.30417997
23	0xbd9dc568	-0.07703668
24	0x3bfc19a5	0.0076934868
25	0x3cacfe51	0.021117361
26	0x3d969645	0.073528804
27	0xbbafc2b4	-0.0053637866
28	0xbef9753d	-0.48722258
29	0x3e6fd694	0.23421699
30	0x3dc42f51	0.095793374
31	0xbe96ed20	-0.29477787
32	0xbe9d1d78	-0.30686545
33	0xbdd15fb3	-0.10223331
34	0xbd1928db	-0.03739248
35	0xbe9a6d09	-0.30161312
36	0x3d51b303	0.05119611
37	0xbda8a1da	-0.08233996
38	0x3e5237c5	0.20529087
39	0x3d93e13a	0.07220693
40	0x3d285900	0.041100502
41	0xbd61b4ca	-0.055104055
42	0xbe399a99	-0.1812538
43	0xbe577e01	-0.2104416
44	0x3d54bf57	0.05194029
45	0x3dab6745	0.083693065
46	0x3c7edc4f	0.015555455
47	0xbe65de25	-0.22448023
48	0xbde53fde	-0.11193822
49	0xbeacf30b	-0.33779177
50	0x3da4fec7	0.080564074
51	0x3d51be6f	0.051207002
52	0xbe932e70	-0.28746367
53	0xbe9de898	-0.30841517
54	0xbdd5db7e	-0.104422554
55	0x3d9a5ef9	0.07537646
56	0xbd6fe1e0	-0.05856502
57	0xbbc68e65	-0.006059455
58	0xbeab6818	-0.33477855
59	0xbe4fd08f	-0.20294403
60	0xbd7d96cc	-0.06191139
61	0x3dd588fa	0.10426517
62	0xbd7f9b73	-0.062404107
63	0x3e005a03	0.12534337
64	0xbd7d3a94	-0.061823443
65	0xbdc52352	-0.096258774
66	0x3e3ac3b9	0.18238725
67	0x3b8aef54	0.004239956
68	0x3ca8b05f	0.020591913
69	0x3db85e4e	0.09002362
70	0xbccd5a31	-0.02506742
71	0xbd9c075d	-0.07618592
72	0xbdee1311	-0.116247304
73	0xbe2b5a0a	-0.16733566
74	0xbdeaf94e	-0.11473332
75	0xbda42f90	-0.08016884
76	0xbcaffbf9	-0.021482455
77	0xbeca13e4	-0.394683
78	0xbe3cd0d7	-0.18439041
79	0x3dce212d	0.100649215
80	0xbe50f2a2	-0.20405057
81	0x3e9b8fe6	0.30383223
82	0xbe9a4240	-0.3012867
83	0xbe647d3d	-0.223134
84	0xbcb48b4b	-0.022039076
85	0xbe1bc150	-0.15210462
86	0xbd68df01	-0.056853298
87	0x3d8be91a	0.0683157
88	0x3d5cda03	0.05391885
89	0xbeb6ad11	-0.35678914
90	0x3d7ee1ea	0.062227167
91	0x3e1829f7	0.14859758
92	0xbe8e3612	-0.27775627
93	0x3e2ef3c9	0.17085184
94	0xbe9bbac3	-0.30415925
95	0xbe665f2f	-0.22497247
96	0xbd48893e	-0.04895901
97	0x3d38fe38	0.045164317
98	0x3d89fa74	0.06737223
99	0x3d02eb78	0.03196284
100	0x3cefaa40	0.029255986
101	0xbd4798f5	-0.048729856
102	0x3e4a6b0d	0.19767399
103	0x3d1d3828	0.038383633
104	0xbe88d815	-0.26727358
105	0xbb634d4c	-0.0034683524
106	0xbd18ba78	-0.037287205
107	0xbd526488	-0.051365405
108	0xbe6aa6ea	-0.22915235
109	0x3cd1d42f	0.025613872
110	0xbe73d2a6	-0.23810825
111	0xbe592c24	-0.21208245
112	0xbec25cb4	-0.37961352
113	0xbef1f703	-0.47258767
114	0x3daf4f69	0.08560068
115	0x3e2d27e8	0.16909754
116	0xbe0fe3c2	-0.14051726
117	0x3cdf4ae3	0.027257388
118	0xbda41fdf	-0.080138914
119	0xbe341b60	-0.17588568
120	0x3de01f41	0.10943461
121	0x3def10b7	0.1167311
122	0xbf109ab7	-0.56486076
123	0xbe4f274c	-0.20229834
124	0xbec0de2a	-0.37669498
125	0xbe4bda1c	-0.19907421
126	0x3de0ef4e	0.10983144
127	0xbdf95466	-0.12174301

net_container.2.weight f4 [128, 128]
0	0x3d16cb7e	0.03681516
1	0x3c9a53f2	0.018838856
2	0xbbc3cb82	-0.0059751878
3	0xbca9577f	-0.020671604
4	0xbd1e5c49	-0.03866223
5	0xbd2502ac	-0.04028575
6	0x3cdfbe2f	0.027312366
7	0xbc3407be	-0.010988174
8	0x3b294f61	0.0025834667
9	0x3b2ddaaa	0.002652804
10	0x3bc93ff4	0.006141657
11	0xbd7df474	-0.062000707
12	0x3d606d5b	0.05479179
13	0xbd3335a2	-0.04375232
14	0x3d7c08c8	0.061531812
15	0x3a0b65a5	0.00053175754
16	0x3d6d8d07	0.057995822
17	0xbdc83f5e	-0.09777711
18	0x3da047bc	0.07826182
19	0x3d8965a4	0.067088395
20	0xbd06207b	-0.03274582
21	0x3d1f6d34	0.038922504
22	0xbd4eec9c	-0.050518617
23	0xbdeb3839	-0.11485333
24	0x3c17246c	0.009224992
25	0x3af066b9	0.0018341161
26	0x3c96b614	0.018397368
27	0xbcdca003	-0.026931768
28	0xbd9427c7	-0.072341494
29	0xbd3995b6	-0.04530879
30	0xbd8116de	-0.0630319
31	0x3d6921a1	0.056916837
32	0xbb496c8f	-0.0030734872
33	0xbd826b20	-0.06368089
34	0xbba2054a	-0.004944478
35	0x3db283a4	0.08716515
36	0xbe039618	-0.12850225
37	0x3d5def61	0.054183368
38	0x3de0eb42	0.10982372
39	0xbcee06aa	-0.029055912
40	0xbd1d151f	-0.03835022
41	0xbd11d04e	-0.035599045
42	0x3d78daea	0.060755648
43	0xbd7acb65	-0.06122913
44	0x3de59bcb	0.11211356
45	0x3d6dce09	0.05805782
46	0xbd8e5d03	-0.06951334
47	0x3c2ae499	0.0104304785
48	0x3d0c1fb7	0.034209933
49	0x3d5456a6	0.051840447
50	0xbccc0f8a	-0.024909753
51	0xba8c9d58	-0.0010728044
52	0xbd06e420	-0.0329324
53	0xbd5cd1b2	-0.05391092
54	0xbda05536	-0.07828753
55	0xbdafe6a9	-0.08588917
56	0xbdde72b6	-0.10861723
57	0xbd7f3078	-0.062302083
58	0xbd8642ce	-0.06555711
59	0x39ba25cb	0.00035504843
60	0xbafc6697	-0.0019256648
61	0xbd2c54d3	-0.042073082
62	0x3c9bc44b	0.019014498
63	0x3c9fb2f5	0.019494513
64	0xbbe2d146	-0.00692192
65	0xbc4c886d	-0.012483698
66	0x3d58b0d1	0.052903
67	0xbd32e660	-0.043676734
68	0x3d036ee5	0.03208818
69	0x3db138f8	0.08653444
70	0x3d9d2c7e	0.07674502
71	0xbd634f58	-0.05549559
72	0x3b8f1d13	0.0043674796
73	0xbc5f0e88	-0.013614304
74	0xbdf01232	-0.117222205
75	0xbd93673a	-0.07197423
76	0x3d7373fd	0.059436787
77	0x3d55e207	0.05221751
78	0x3d4d4a63	0.05011977
79	0xbd4cc5ac	-0.049993202
80	0xb9bc975f	-0.00035970935
81	0x3c6cc5e4	0.014451478
82	0xbb32cd00	-0.0027282834
83	0xbde07afa	-0.10960956
84	0x3d938017	0.072021656
85	0xbe12659d	-0.14296575
86	0x3c1e1e4c	0.009650778
87	0xbd302d35	-0.043011863
88	0x3cb99892	0.022655759
89	0xbd1122c5	-0.03543355
90	0xbd66fa4a	-0.056391038
91	0x3bdd7eb4	0.006759489
92	0x3c4b0575	0.012391438
93	0xbd2081e8	-0.03918639
94	0x3d2519d1	0.040307824
95	0xbd118074	-0.035522893
96	0xbc8a2f97	-0.016868396
97	0xbd47619b	-0.04867707
98	0x3be4f724	0.0069874693
99	0x3c4750e2	0.01216528
100	0xbc32eba9	-0.010920444
101	0xbd763466	-0.060108565
102	0xbc3661c7	-0.01113171
103	0xbc5407ff	-0.01294136
104	0xbd91516e	-0.070956096
105	0x3ca0e334	0.019639589
106	0x3a5633f3	0.0008171193
107	0xbd3657d7	-0.044517364
108	0x3db0f822	0.086410776
109	0xbcad4539	-0.021151172
110	0x3dce5464	0.1007469
111	0x3de35de8	0.111018956
112	0xbd7bfb02	-0.061518677
113	0x3dca3f0f	0.09875309
114	0xbcf30c62	-0.02966899
115	0xbd44a64d	-0.04801016
116	0x3c4a0b91	0.012331859
117	0x3d341ead	0.043974567
118	0xbd4d7b3d	-0.050166357
119	0xbce3d0b6	-0.027809482
120	0x3b7d6072	0.0038662222
121	0x3b1c86bc	0.002388402
122	0x3be3e8ec	0.0069552567
123	0xbd81d3c6	-0.06339221
124	0x3a919849	0.0011108007
125	0x3d9151d4	0.070956856
126	0xbdb3fe3b	-0.08788725
127	0x3c872a7d	0.016499752
128	0xbd03b0c8	-0.032151014
129	0xbd0da705	-0.03458311
130	0x3d97dc3f	0.074150555
131	0x3c2e9ee7	0.010658002
132	0x3db915df	0.09037375
133	0x3d8347aa	0.06410153
134	0xbc84f90c	-0.016232036
135	0xbd5f7035	-0.05455037
136	0x3cb1c14d	0.021698618
137	0x3b14269f	0.0022606028
138	0xbbb25632	-0.005442404
139	0x3c99035e	0.018678363
140	0xbd96f4c6	-0.073709056
141	0xbce20129	-0.027588444
142	0xbd27046b	-0.040775698
143	0x3c2b91af	0.010471745
144	0xbaf1f9f5	-0.0018461334
145	0xbc3a8042	-0.011383118
146	0xbc8bec6e	-0.017080512
147	0xbd8248b6	-0.06361525
148	0x3d936434	0.071968466
149	0x3d9637b0	0.0733484
150	0xbcf0d150	-0.029396683
151	0xbce93e8f	-0.028472213
152	0x3d434ef5	0.04768272
153	0x3c9043e0	0.01761049
154	0x3d26c4f4	0.040715173
155	0xbcd0685b	-0.025440386
156	0xbdb2536e	-0.08707319
157	0xbd9eb06e	-0.07748495
158	0x3c7b86ac	0.0153519325
159	0xbde153fe	-0.11002348
160	0xbd9d9b41	-0.07695628
161	0x3ae540aa	0.0017490585
162	0xbce5bbad	-0.028043592
163	0xbd9376ed	-0.07200418
164	0x3cd943b3	0.02652154
165	0xbb827463	-0.0039811595
166	0xbc92b539	-0.01790868
167	0x3d141f94	0.036162928
168	0xbd85e0e9	-0.06537039
169	0xbcbb4b04	-0.022862919
170	0x3d47f9b2	0.048822112
171	0xbcde2eb8	-0.027121887
172	0xbdc4fcb0	-0.09618509
173	0xbddd8543	-0.10816433
174	0x3cb2f3ef	0.021844832
175	0x3d73aa63	0.059488665
176	0xbd080acf	-0.033213433
177	0x3d6d953c	0.05800365
178	0xbdb9e0c0	-0.09076071
179	0xbcdef593	-0.027216708
180	0x3d3f490d	0.046700526
181	0xbd74b572	-0.059743352
182	0xbcf2c186	-0.029633295
183	0x3d482e54	0.048872307
184	0x3d347bc8	0.04406336
185	0x3b9b2025	0.0047340565
186	0x3cd99ded	0.026564563
187	0x3c800718	0.015628383
188	0xbc8312d0	-0.016000181
189	0x3d903333	0.070410155
190	0x3a048f11	0.0005056719
191	0x3d44d291	0.048052374
192	0x3d06b193	0.03288419
193	0xbce531a9	-0.027977781
194	0xbd001daf	-0.03127831
195	0xbd40d7bf	-0.04708075
196	0xbd565fb6	-0.05233737
197	0x3a12c1df	0.0005598347
198	0x3d8cd05e	0.068756804
199	0xbd11ebad	-0.03562515
200	0x3d26de19	0.040739153
201	0x3d0d02b3	0.034426402
202	0x3d94e363	0.07269933
203	0x3be0a4f3	0.006855601
204	0xbcc01a81	-0.023450138
205	0x3d3512b5	0.044207294
206	0xbd218182	-0.03943015
207	0xbd28c017	-0.041198816
208	0x3cbf5004	0.023353584
209	0xbd29a790	-0.041419566
210	0x3c95107d	0.018196339
211	0x3d3dbed9	0.046324585
212	0xbd9c8447	-0.076424174
213	0x3d4007c6	0.046882413
214	0xbbc9c2ea	-0.006157269
215	0xbc8acc04	-0.016942985
216	0x3d0b2918	0.033974737
217	0x3d8649e7	0.065570645
218	0x3d75a8ce	0.059975438
219	0x3c093127	0.008373535
220	0x3d3199f0	0.043359697
221	0x3d4ba2a7	0.049715664
222	0x3c8e56a8	0.017375305
223	0x3d615ea8	0.05502191
224	0x3c9e1640	0.019297719
225	0x3bc5fa87	0.006041828
226	0x3d240d1c	0.040051565
227	0xbb5c2c46	-0.0033595725
228	0x3cdb8691	0.026797565
229	0xbd3c6d8f	-0.04600292
230	0x3d17cca3	0.03706039
231	0xbcdee1d2	-0.027207289
232	0xbdb0bbc2	-0.08629562
233	0xbdbb7b66	-0.09154396
234	0x3d48e509	0.04904655
235	0x3dc09cb2	0.09404887
236	0xbd85e174	-0.065371424
237	0x3cfebb4c	0.03109517
238	0x3dd4a571	0.10383118
239	0xbc04a583	-0.008096102
240	0x3ddf3a85	0.108998336
241	0xbd3f3e28	-0.046690136
242	0x3dbf68bb	0.093461476
243	0x3d807682	0.062726036
244	0xbdea81b7	-0.114505224
245	0x3c4d5db2	0.012534546
246	0xbb0a070a	-0.0021061325
247	0x3d42f756	0.04759916
248	0x3dc05ce6	0.09392719
249	0xbd196c75	-0.03745695
250	0x3d024c73	0.03181119
251	0xbd7e340f	-0.062061366
252	0x3d456628	0.048193127
253	0x3d11b05f	0.03556859
254	0xbcfc7715	-0.030818501
255	0xbd831c8a	-0.06401928
