src/controller_wind_rl/wind_model.pth (torch, 493820 bytes, 18 tensors)

lstm.weight_ih_l0 f4 [256, 22]
000000 bc a2 04 3f 07 cc 80 3f ed 30 aa c0 92 e1 dd bf
       0.5181081 1.0062264 -5.3184724 -1.7334464
000010 31 af d0 bd 31 ed 49 c0 2b 94 d5 3f 47 61 bd bc
       -0.10189665 -3.155102 1.6685842 -0.023117675
000020 11 64 71 bf 86 ef 1c 3f 43 81 a3 3f 5a 93 9c 3f
       -0.94293314 0.61302984 1.2773823 1.2232468
000030 77 9d 47 bf 56 af 0d 3f 4f c6 b7 3f 24 53 e6 be
       -0.7797465 0.55345666 1.4357394 -0.44985306
000040 60 aa 99 bf 61 cd 91 3f 42 01 62 40 71 e3 84 be
       -1.2005119 1.1390802 3.5313268 -0.25954774
000050 b9 b6 e9 3d 8f b9 8f be 41 b5 12 3f 59 5c a5 be
       0.11411805 -0.28071257 0.5730782 -0.32297018
000060 96 b7 c5 bf a0 d1 1c bf 83 77 61 40 67 c5 c6 3e
       -1.5446651 -0.6125736 3.5229194 0.3882248
000070 26 e4 af 3e 08 a9 d3 3e 13 a1 cd bf 68 64 4a be
       0.3435375 0.41339898 -1.6064781 -0.19764864
000080 22 71 59 be 48 17 21 3f b6 f5 4e bf 07 c4 42 3e
       -0.21234563 0.6292615 -0.80843675 0.19020091
000090 ea c7 37 3f 62 ec 8a bd 11 be 0c be 67 20 4f 40
       0.7178942 -0.06783368 -0.1374438 3.2363527
0000a0 71 a6 a3 3f 18 6e d7 3e 7e 9d fe bf f6 2c 2c be
       1.2785169 0.42076182 -1.9891813 -0.16814026
0000b0 f6 b7 a5 bf bb 7e b1 3f 3f 53 d3 3f aa 43 c8 be
       -1.2946765 1.38668 1.650978 -0.39114124
0000c0 67 2f 30 40 0d dc 67 be 1e 07 d1 3f d8 cd 12 3e
       2.7528932 -0.22642536 1.6330297 0.14336336
0000d0 4a 14 c4 be 41 8c 46 bf 1e 25 07 bf e8 63 d6 bf
       -0.3829673 -0.7755776 -0.5279101 -1.6749239
0000e0 e0 c6 25 40 c0 ae 7b be 1f ad c8 3f c3 2e c0 bf
       2.5902634 -0.2457838 1.5677832 -1.501427
0000f0 0d 2b 2e bf 2b 07 d1 3f 9c 0e 22 3f 82 54 bc bd
       -0.6803444 1.6330312 0.6330354 -0.09195806
000100 9c cf 8e 3e fc 0e dd bf cd 15 8a 3f 58 74 4e c0
       0.27892768 -1.7270198 1.0787903 -3.225851
000110 8d f7 72 bf 2a 02 3e c0 f2 3a ef bf 61 30 07 40
       -0.9490898 -2.968882 -1.8689864 2.1123278
000120 46 85 1f be 54 79 e9 bf ed c3 11 3c 94 8e cf bf
       -0.15578184 -1.8240151 0.00889681 -1.6215386
000130 31 ae 82 bd c2 a6 0c 40 d1 8d 37 c0 4a 1c c9 bf
       -0.063808806 2.197678 -2.8680308 -1.5711758
000140 2d e7 2c be a3 35 1c be c0 d5 c3 bf 86 33 07 c0
       -0.16885062 -0.15254836 -1.5299606 -2.1125197
000150 90 f1 ad be d1 f3 6d 3d 4f ba 1b bf 4a 48 e9 3f
       -0.3397336 0.05809385 -0.6083116 1.8225186
000160 c8 b9 1f bf 40 ff 94 3f 2e 20 78 bf 33 71 20 3f
       -0.62392855 1.1640396 -0.969241 0.6267273
000170 bf 72 79 3f 04 bd b9 bf fc 1b 08 c0 cc af a3 be
       0.97440714 -1.4510808 -2.126708 -0.3197006
000180 1c c8 45 bf 18 70 75 3f bb 7f a0 3e bd ef e2 3e
       -0.7725847 0.95874166 0.3134745 0.4432353
000190 1c 31 4e bf 80 97 13 bf 8f 7b e8 bf 5b b2 ad 3f
       -0.80543685 -0.57653046 -1.8162707 1.3570055
0001a0 5f ae 3e 3f ba 42 05 3f a3 87 be 3e ce 5b 05 3f
       0.7448482 0.5205494 0.37212858 0.5209321
0001b0 9b 0f 8e 3f d9 97 b9 3e 64 22 2c c0 f7 e1 38 40
       1.1098512 0.36248663 -2.689599 2.8887918
0001c0 b0 cb 3f c0 5a a6 11 40 b8 e0 0f bf c5 99 84 bf
       -2.996807 2.2757783 -0.5620227 -1.0359427
0001d0 50 76 06 40 c6 78 46 3f 6d f1 59 3e df 70 29 c0
       2.1009712 0.77528036 0.21283503 -2.647514
0001e0 71 16 1e bf 60 46 d7 bf dc da 04 40 c0 73 de 3f
       -0.6175299 -1.6818352 2.075858 1.7379074
0001f0 1f a5 10 40 c0 e7 90 bf c3 c8 0d 3f 4d 6b ea bf
       2.2600782 -1.1320724 0.55384463 -1.8313996
000200 f7 96 07 3f 0f fd 5b bf a9 0e 42 bf 09 dd e0 bd
       0.5296473 -0.8593301 -0.7580362 -0.10979659
000210 5f d5 02 bf 6a 78 23 40 48 51 d5 be 14 4e a2 3f
       -0.5110683 2.5542245 -0.41663575 1.2680078
000220 1c 14 b5 3f 14 5a 28 be f3 0f ab bf 74 c2 81 3f
       1.4146762 -0.16440612 -1.3364242 1.0137467
000230 6b 6e a0 be 24 0e 2d 3f 54 9c 60 bd ef db 1e c0
       -0.31334242 0.675997 -0.054836586 -2.4821737
000240 2d ca 0a c0 82 3e 11 40 fa 54 a2 bf 6f ed 14 3e
       -2.1685898 2.2694402 -1.2682183 0.14543699
000250 09 71 d8 3d b1 0f a3 3f 08 c2 46 bf 32 80 96 bf
       0.10568435 1.2739164 -0.7763982 -1.1757872
000260 9d b4 08 c0 56 55 7f bf c0 34 3a bf 73 db 78 3d
       -2.1360238 -0.9973959 -0.7273674 0.060756158
000270 96 18 dd bf 55 cd 97 bf 79 85 e1 bf d8 2f fa bf
       -1.7273128 -1.1859537 -1.7618858 -1.9545851
000280 bd e4 89 bf cf 5b 74 3f ca 69 93 bf 80 89 d9 3e
       -1.077293 0.9545259 -1.1516659 0.42487717
000290 8c 18 66 be 98 54 8c bf 9c ad 17 3f 37 39 b8 3f
       -0.22470301 -1.0963316 0.5924928 1.439246
0002a0 a8 d7 95 bf bd 69 18 40 ee af 1d 3d fd 89 8d 3f
       -1.1706438 2.3814538 0.038497858 1.1057736
0002b0 cb d2 3e 40 b6 50 3a 40 55 18 91 3d 17 2e 18 3e
       2.9816158 2.9111762 0.07084719 0.14861332
0002c0 a7 4f 45 3e 46 a3 fd 3e 9f 81 30 40 8b 58 80 3c
       0.19268666 0.4953863 2.7579114 0.01566722
0002d0 7f 12 28 bf be b6 26 3f c1 97 89 3f d3 4b 38 3e
       -0.6565322 0.6512259 1.0749437 0.17997675
0002e0 c3 8b f7 be 58 b5 2a bf b9 cf 75 3f 65 61 c6 bd
       -0.48348817 -0.6668296 0.96020085 -0.09686545
0002f0 99 20 41 bf a3 f3 e2 bd 31 1a 9d 3f 50 49 bf bf
       -0.75440365 -0.11081626 1.2273618 -1.4944248
000300 6c 63 e2 bd 19 e5 72 3e 16 01 24 bf 4a 23 3d 3f
       -0.110541195 0.23720206 -0.64064157 0.7388197
000310 b6 eb c5 bf b6 d0 1c bf cc f8 55 c0 71 8d 2c 40
       -1.5462558 -0.6125597 -3.3433104 2.696133
000320 38 5e e3 3f 66 2e 22 c0 6f 31 28 bf 4d a6 44 40
       1.7763128 -2.534082 -0.6570043 3.0726502
000330 71 54 56 be 76 e3 a7 40 79 ee fd 3f 5f 02 22 bf
       -0.2093065 5.246516 1.9838401 -0.6328487
000340 6f 6d 37 40 ee e7 c0 c0 1b 82 47 3f fb f0 b2 40
       2.8660543 -6.0283117 0.779329 5.5919166
000350 6b 6b 87 be a0 c4 1e be d6 f4 54 c0 41 15 5d c0
       -0.2644914 -0.15504694 -3.3274436 -3.4544222
000360 ae 73 b2 c0 0c 92 2b 3d ff 69 d8 bf b3 94 9d 3d
       -5.576621 0.041887328 -1.6907347 0.07694378
000370 17 97 57 40 ba 45 3f bf 4f b5 6a be 37 b7 7e c0
       3.3685968 -0.7471577 -0.22920726 -3.9799325
000380 44 cf 4c bf bb a3 22 40 5a 52 5e bf c9 c7 ca 3e
       -0.8000376 2.5412433 -0.8684441 0.3960555
000390 f3 d4 68 bf 55 32 39 3f ae 25 95 bf de 99 82 bf
       -0.90949935 0.72342426 -1.1652124 -1.0203207
0003a0 db dc 45 bf 95 89 15 3f 8f 42 62 bf 2b 23 ca 3e
       -0.77290124 0.5841306 -0.8838281 0.39479956
0003b0 65 fc c6 bf 66 ec 0d c0 45 4c fd bf 69 71 34 bf
       -1.5545775 -2.2175536 -1.9788901 -0.7048555
0003c0 e6 8b 0b c0 37 00 16 3f 68 12 b5 bf f9 b5 0e 40
       -2.1804137 0.5859408 -1.4146242 2.2298567
0003d0 9f 40 fc bf 97 04 8c 3f 15 cc b4 3f 99 45 df be
       -1.9707221 1.0938901 1.4124781 -0.43607786
0003e0 f3 e1 5e be 0b b4 9a 3f a2 f3 0b bf 54 0b b2 3f
       -0.2176588 1.2086195 -0.5466863 1.3909707
0003f0 0f 27 b7 bf 90 1a 30 bf dc 4d 02 40 f9 33 df 3f
       -1.4308795 -0.6879053 2.0360022 1.7437736

lstm.weight_hh_l0 f4 [256, 64]
000000 3c 39 a5 3f 2e 21 cc be 82 cc 3f bf 87 a4 02 40
       1.2908092 -0.39869064 -0.7492143 2.041292
000010 33 e9 70 c0 0c 2d 17 40 22 b8 64 bf 0c f9 d8 bf
       -3.7642334 2.3621244 -0.89343464 -1.6951003
000020 d4 5d 99 3f 4b 21 2f 40 32 e2 c2 3d 23 99 4e bf
       1.1981759 2.736407 0.095157996 -0.8070242
000030 25 a9 e6 3e b7 5f 2b 40 50 86 d4 3d 0a 57 48 bf
       0.45050922 2.677717 0.103771806 -0.7825781
000040 7b 84 99 3f 50 08 8f 3f 54 d6 bd 3e e5 30 dd be
       1.1993555 1.1174412 0.37077582 -0.43201366
000050 5d 11 e8 3e 1d f1 1c bf b9 c5 b2 3e b2 61 d8 bb
       0.45325747 -0.6130541 0.34916475 -0.006603443
000060 17 74 d5 be 45 32 d8 3e 3f e0 da 3f 35 25 36 bf
       -0.41690132 0.42225853 1.7099684 -0.71150523
000070 14 58 b5 bf a3 cc 9a bd 86 48 9b 3e 4a 07 23 bf
       -1.4167504 -0.075585626 0.30328768 -0.63683
000080 b0 ae d8 bd e7 f5 0f 40 c5 12 9f 3e 98 92 8a bf
       -0.10580194 2.2493837 0.31069008 -1.0825987
000090 d5 63 e2 bf 94 cc a0 3e bd 28 c3 3f 84 d5 ea 3e
       -1.7686716 0.3140608 1.5246807 0.45866024
0000a0 5d 6f 22 40 02 a2 1d c0 e4 61 1d 40 84 d5 d9 3f
       2.538047 -2.4630132 2.4590998 1.7018285
0000b0 1b 29 ef 3c 5c ce 28 bf 89 db 95 be a6 09 dd bf
       0.029194405 -0.6593988 -0.29269055 -1.726857
0000c0 6f 1b 5d 3f 5e dd a4 3a ec e1 bd bd f0 65 f5 3f
       0.86369985 0.001257818 -0.09271607 1.9171734
0000d0 c6 18 1e 3d f3 da 94 bf d5 2e 33 3f ac 31 59 3c
       0.038597845 -1.1629318 0.69993335 0.013256472
0000e0 bc 3e d4 3f 3c 40 53 c0 02 4b 2b 40 80 c2 c7 bf
       1.6581645 -3.3007956 2.676453 -1.5606232
0000f0 78 2e 05 c0 75 c3 97 bf 12 bf 02 bf bd 62 bd 3f
       -2.0809612 -1.1856524 -0.510728 1.4795758
000100 d4 c1 15 3f 37 87 cc bf 99 b2 8a 3f 67 80 d5 bf
       0.58498883 -1.5978764 1.0835754 -1.667981
000110 e5 71 80 bf d4 c2 a4 3f 52 7d e1 be 82 77 b2 bd
       -1.0034758 1.2871957 -0.44040924 -0.087142006
000120 53 cc 7f 3f 8b d1 75 bf ea 64 3d 3f 5b 97 12 c0
       0.9992115 -0.9602286 0.7398211 -2.290488
000130 8e 04 f6 3f 41 bb 4b 3f 28 9b fa be a1 36 d9 bf
       1.922014 0.795826 -0.489465 -1.6969796
000140 5c 51 7c bf 02 c6 4a 40 36 3f 7d 3f 53 83 f0 3e
       -0.98561645 3.1683354 0.9892458 0.46975192
000150 5b b8 04 bf fe 2a 89 be b8 4b 01 c0 95 bf 95 bf
       -0.51843804 -0.26790613 -2.0202465 -1.1699091
000160 c1 c2 aa 3f 39 fc c3 3d d5 75 34 3c fd 52 1b 3f
       1.3340684 0.09569592 0.0110144215 0.60673505
000170 36 df 89 3f 16 3d 94 3f 0d 49 1d 3f a9 5b 03 be
       1.0771244 1.1581142 0.6143959 -0.12827934
000180 69 35 35 3e 96 90 70 be 6b 04 7f 3f c6 6e 31 40
       0.17696156 -0.23492655 0.99616116 2.772386
000190 74 2c 21 be 39 3c 10 bf 37 ed 8a bb 7f 01 9f bf
       -0.15739614 -0.5634189 -0.004239704 -1.2422332
0001a0 ae 0b da 3f 0b 0a 97 3f 01 86 c7 3f e8 17 e1 3f
       1.7034814 1.179994 1.558777 1.7585421
0001b0 d1 ba 16 3f f6 fe 8f bf cc 5b f3 bf e6 00 c8 bf
       0.5887881 -1.1249683 -1.9012389 -1.5625274
0001c0 d8 23 e1 3f 18 65 0e 3f 3e 1a ce bf 2c 42 88 3f
       1.7589064 0.55623007 -1.6101758 1.0645194
0001d0 29 99 95 3d da aa 92 3f 2b de 3a bf 7d 40 b6 bf
       0.073046036 1.145839 -0.7299525 -1.423843
0001e0 00 2d a5 be 48 69 81 bf cc 03 29 3f 47 c9 83 3f
       -0.32260895 -1.0110254 0.6602142 1.02958
0001f0 22 51 a7 be d9 73 27 c0 ea 8d 34 3c f9 97 05 bf
       -0.32679087 -2.6164458 0.011020163 -0.52185017
000200 52 2e fe 3e 30 a5 16 3f ce c5 0d 3c f2 0e d0 3e
       0.49644715 0.58845806 0.008653117 0.40636402
000210 95 af 7b bf 72 50 ba be 42 18 04 3f 81 5a 84 bf
       -0.9831479 -0.363895 0.51599514 -1.034012
000220 2f ad 83 be af 28 89 be 7d 90 23 3d 81 fc 5f bf
       -0.25718066 -0.26788852 0.039932717 -0.87494665
000230 08 1b 88 bf 9b 74 98 3c c0 e7 bc be 08 db 95 bf
       -1.0633249 0.01861029 -0.3689556 -1.1707468
000240 9b 4e 7d bf 8f 72 38 bc 14 57 12 c0 d7 25 9d 3f
       -0.9894807 -0.011257782 -2.2865648 1.2277173
000250 e0 32 0a 3e 47 96 f9 bf c0 de 24 3e b9 ea ad bf
       0.1349597 -1.9498986 0.16100597 -1.3587257
000260 6e 71 b5 3d 21 8c 1d bd 76 48 01 3e 9d 46 7d bf
       0.088595256 -0.038463715 0.12625298 -0.9893587
000270 12 f3 93 3b 6a 93 da bf 59 f0 53 c0 61 72 41 3f
       0.00451506 -1.7076237 -3.3115447 0.75565153
000280 2b 15 f9 3f 22 fa 10 3f 53 a9 89 3a 28 b8 e5 3f
       1.9459585 0.5663167 0.0010502733 1.7946825
000290 88 a8 05 c0 3c f8 e3 3e c6 a5 68 bf 84 14 12 3d
       -2.0884113 0.44525325 -0.9087795 0.035664096
0002a0 f8 06 ab bc 70 2b e1 be 32 66 bf bf de 4a a9 3e
       -0.020877346 -0.43978453 -1.4953063 0.33064932
0002b0 b7 fc 4c 3f 51 2b c3 39 d4 e8 78 3f 33 89 e6 3d
       0.8007311 0.00037225572 0.9723027 0.112566374
0002c0 f6 c0 58 be 28 1e 99 3f e1 b9 9f bf 9a b0 e3 bf
       -0.21167359 1.1962328 -1.2478601 -1.778827
0002d0 3c 33 95 3d 3a 63 a3 bf d9 b6 57 3f e3 ca 05 80
       0.07285163 -1.2764657 0.8426338 -5.3196e-40
0002e0 2b 75 75 3f f8 05 d6 be 2a cd 8f 3c 86 ed 73 3f
       0.9588191 -0.4180143 0.017553885 0.95284307
0002f0 0b 74 5b 3b af b2 e6 bf 94 95 0d c0 0c ef cc bd
       0.0033485915 -1.802328 -2.2122545 -0.10006532
000300 39 95 d9 3f c3 db 6b 3e be ce d2 bd 1c 10 0d 40
       1.6998664 0.23033051 -0.10293339 2.2041082
000310 3e 39 b3 3e 8f de 8c bf 04 80 8a bf 91 be fc 3e
       0.3500461 -1.100542 -1.0820317 0.4936414
000320 fa 2d d5 3e 49 79 2b c0 71 bc 8e be 41 99 93 3f
       0.4163664 -2.6792777 -0.27878144 1.1531144
000330 5d 90 1c 3f 8a 05 91 bf b0 18 0c 3f 71 d2 1b 40
       0.6115778 -1.1329815 0.5472517 2.4347193
000340 0e b5 8d bf c7 7d b0 3e 74 b3 e0 3e ac 89 81 bf
       -1.1070879 0.3447096 0.43886912 -1.0120139
000350 88 8b a9 be 10 f2 93 3f dd f1 d5 bf c2 6b 60 3f
       -0.33114266 1.1558247 -1.6714436 0.87664425
000360 d3 49 8b 3f 5c e5 30 be e0 6a 8c 3f 29 51 07 bf
       1.0881904 -0.17274994 1.0970116 -0.52858216
000370 ea fd 21 3f 07 83 d3 bf 3e 34 11 c0 0b 3d db bf
       0.6327807 -1.6524361 -2.2688136 -1.7128004
000380 01 40 fe bd df 27 93 bf 6f 21 a6 3f d8 cd 20 3e
       -0.124145515 -1.1496543 1.2978953 0.15703523
000390 64 8b 75 bf 7b e7 bd bd e5 e6 20 bf 61 0e a1 bf
       -0.9591582 -0.09272667 -0.6285232 -1.2582513
0003a0 9a f2 75 3f 0c 0a 9b 3f 00 bd e5 bd 23 96 ef bf
       0.96073306 1.2112441 -0.112176895 -1.8717693
0003b0 4d 75 d0 bd 08 b9 74 be a4 6b 63 bf a7 19 95 bf
       -0.10178623 -0.23898709 -0.8883612 -1.1648453
0003c0 36 68 df 3f 3f c2 75 bf cc e5 0a 40 a4 78 a5 3f
       1.7453678 -0.9599952 2.1702757 1.2927442
0003d0 4b 47 4e bf 88 e0 a6 bf ab 75 8d be 8c 36 2c 3c
       -0.80577534 -1.3037271 -0.27628836 0.010511052
0003e0 a6 2b d0 3d cc 02 56 3f 4e 75 19 bf 13 a9 b0 3e
       0.10164575 0.8359802 -0.5994462 0.34503993
0003f0 0d 8c 02 c0 85 17 04 c0 83 ba c5 3e 51 d3 1a 3f
       -2.039798 -2.0639355 0.3861886 0.60478693

lstm.bias_ih_l0 f4 [256]
000000 f3 8c d0 3f b1 58 25 3f f0 c7 dd 3f 55 2e 62 be
       1.6293014 0.6458846 1.7326641 -0.22087987
000010 be c5 e5 bf a9 cd 0c 40 60 24 96 bf 3f 83 93 bf
       -1.7950971 2.2000525 -1.1729851 -1.1524428
000020 41 cd a9 3f 2e db 95 be 39 be 6f bf 19 fb 8a bd
       1.3265764 -0.29268783 -0.9364963 -0.06786174
000030 49 c3 43 bf a5 45 c1 3f 10 98 ba bf 37 32 86 bf
       -0.76469857 1.5099379 -1.4577656 -1.0484074
000040 21 99 60 bf f0 60 b8 bf 5d ee 52 bf ef 6c ff bf
       -0.87733656 -1.4404583 -0.82394964 -1.9955119
000050 74 b5 80 bf 08 04 58 bf 7d fb 24 3e 13 ff 7a bf
       -1.0055375 -0.8438115 0.1611156 -0.9804546
000060 37 20 a2 bf 57 ec ba bf 1a 03 f4 3e ed ef 37 3f
       -1.2666081 -1.4603375 0.47658616 0.7185047
000070 35 44 2a be 1f b9 2a 3f 2e a0 a9 bf 69 d9 98 3e
       -0.16627581 0.6668872 -1.3252008 0.2985337
000080 46 6b 81 3f 4a 0d aa bd cb b6 eb be 06 16 a6 bf
       1.0110862 -0.08303316 -0.46037897 -1.2975471
000090 e9 ff 36 bf 8f 94 4f 3e c7 95 24 3e 47 9b ab 3e
       -0.7148424 0.20271514 0.1607276 0.33516905
0000a0 6f 43 db bf 34 af 75 3f 45 00 5e bd 28 5b 97 3f
       -1.7129954 0.95970464 -0.054199476 1.1824694
0000b0 80 94 99 3f 18 3c cb 3d b5 1c 49 bf 25 57 bc bf
       1.1998444 0.09923571 -0.7855943 -1.4714094
0000c0 76 e4 a4 3f 28 46 ed 3e bd 75 e8 be 07 e6 a4 be
       1.2882221 0.46342587 -0.45402327 -0.32206747
0000d0 d8 b9 a5 be 48 21 77 bf 42 73 e8 3f 2d 7d 08 c0
       -0.3236835 -0.9653516 1.8160174 -2.1326401
0000e0 18 ea cc be 63 74 6a bf e7 8d 20 bf cc 8b a6 3f
       -0.4002235 -0.9158384 -0.62716526 1.3011413
0000f0 68 c5 86 bf 17 ea 58 be 22 50 a0 3f 7c 4b 82 3d
       -1.0528994 -0.21183048 1.2524455 0.06362054
000100 13 7c 5d c0 55 2a 75 bf 04 ff 84 be 1a 30 00 40
       -3.460698 -0.9576772 -0.2597581 2.002936
000110 bc 61 da 3b 9e e2 0a 3f b1 ff 04 c0 7f a3 54 bf
       0.006664483 0.5425204 -2.0781062 -0.83061975
000120 4e 8a 54 3e 0a 63 9b bf 29 d0 0e c0 42 fc f9 bf
       0.20755884 -1.2139599 -2.231455 -1.9530108
000130 64 bb ed bf 0c 6f 7f bf aa de cb 3e b8 e2 8f bf
       -1.8572812 -0.9977882 0.39818317 -1.1241064
000140 6d 39 fd 3e b5 6c d1 be 6e 94 9b bf 19 fc f3 be
       0.49457875 -0.4090325 -1.2154672 -0.47653273
000150 f7 33 81 bf 26 a6 d9 3e e3 a7 04 c0 67 55 fa bf
       -1.0093983 0.42509574 -2.072747 -1.9557313
000160 c9 48 08 c0 9c 35 fe bf 70 2b 0a c0 b2 fe 9b be
       -2.1294425 -1.986011 -2.1589012 -0.30467755
000170 8d b8 02 c0 b3 78 e7 bf a0 44 d0 bf 80 b1 0c c0
       -2.042514 -1.808371 -1.6270943 -2.1983337
000180 61 75 12 c0 8f 93 b7 bf 2a a7 d9 3e 66 af 10 c0
       -2.2884142 -1.4341906 0.4251035 -2.2607055
000190 6a e6 de bf d6 db e5 bd c8 b1 a4 bf 42 73 98 bf
       -1.7414067 -0.11223571 -1.2866755 -1.1910174
0001a0 18 83 b3 3f 91 79 28 c0 cb df 46 bf 59 be da 3f
       1.4024382 -2.6324198 -0.7768523 1.708934
0001b0 7c d6 9a bd 58 93 75 bf e0 02 35 c0 28 fe b5 bf
       -0.07560441 -0.95927954 -2.8283005 -1.4218187
0001c0 01 52 50 c0 d3 69 04 bf 02 eb cc bf e4 87 81 3f
       -3.2550051 -0.51723975 -1.6009219 1.0119596
0001d0 8d 65 9a bf d4 b5 af bf 1f 93 dd bf 38 b8 01 bf
       -1.2062241 -1.3727365 -1.7310523 -0.5067172
0001e0 9b 05 95 bf 6e a8 85 bf 18 32 cc bf 9f e5 10 c0
       -1.1642336 -1.0442026 -1.5952787 -2.264015
0001f0 79 fc d1 bf 22 69 eb bf bc ed be bf e9 af 35 c0
       -1.6405174 -1.8391459 -1.4916301 -2.8388617
000200 77 39 51 3f 1c 92 bc bf 7a 8f 87 3f a6 52 06 3f
       0.8172831 -1.4732089 1.059066 0.5246986
000210 bf 40 a2 be 88 ee 89 be 7b bb 5b bf 40 a9 2a bf
       -0.31690022 -0.26939797 -0.8583295 -0.66664505
000220 00 2a e8 3f 76 0c 87 3e 73 b6 a2 3e fb b8 c7 be
       1.8137817 0.26376694 0.31779823 -0.39008316
000230 48 ca ba 3f d7 2c 59 bf 88 fa d3 bf 71 f7 c3 bf
       1.4592981 -0.84834045 -1.6560831 -1.5309888
000240 44 32 12 3f 4a 8f 6c be e0 bb 80 bf 3d 51 37 40
       0.5710795 -0.23101535 -1.0057335 2.8643334
000250 5b 1b 08 c0 11 84 07 bf 86 0d 01 40 66 37 6d 3e
       -2.1266696 -0.5293589 2.0164504 0.23165664
000260 59 3b c2 bf fd 97 8b 3f aa 68 83 bd f8 39 df 3e
       -1.5174361 1.0905758 -0.064164475 0.43598914
000270 46 9e 98 3f 5c b6 ab 3e 25 04 d5 bf ce c5 50 bf
       1.1923301 0.33537567 -1.664189 -0.81551826
000280 1e cb 49 bf 99 30 86 bf 77 3e 34 40 d1 a9 57 bf
       -0.7882556 -1.0483581 2.8163126 -0.84243494
000290 0e 88 d7 be f4 7d 08 3e 7f 0e a2 bf 4a e5 e0 3f
       -0.4209599 0.13329297 -1.2660674 1.7569973
0002a0 2f 95 3a 3d b1 70 f8 3f ca a1 a7 3e 7b 64 4e 3f
       0.04555243 1.9409391 0.32740623 0.8062207
0002b0 2b f2 e0 bf 9f 07 5a 3f ab da 41 3e 53 21 9f 3f
       -1.7573904 0.8516788 0.18931071 1.2432045
0002c0 ee de 9d be 40 09 99 be fe 53 e8 3f 06 68 65 3f
       -0.30834144 -0.2988987 1.8150632 0.8961185
0002d0 69 c6 bd 3e 02 8c 9c 3f a5 4d a1 be 9e 70 6d 3f
       0.37065437 1.2230227 -0.3150455 0.92749965
0002e0 67 91 d5 bf dd 5b c8 be 89 ee af 3e a3 46 14 40
       -1.6684998 -0.39132586 0.34361675 2.3168113
0002f0 16 40 23 3c 69 4c d3 3f dc 43 9f bf ff cb 07 3f
       0.00996401 1.6507694 -1.2442584 0.5304565
000300 8b 20 f9 3f 27 52 23 3f 9a 66 17 c0 ae 5a 4f 3f
       1.9463056 0.6379723 -2.3656373 0.8099774
000310 b5 2a 5e bf 41 e3 02 c0 8a 50 c7 3f ba 71 2b bf
       -0.86783916 -2.0451205 1.5571454 -0.6697041
000320 6b 26 8d 3f b4 ae da bd 98 3d ae 3e ad 54 de bf
       1.1027349 -0.10677853 0.34031367 -1.7369591
000330 66 40 a0 bf b5 e3 1c c0 8a b0 73 3e 9a 7e 56 3f
       -1.2519653 -2.4513981 0.23797813 0.8378693
000340 56 f8 63 bf 54 00 53 bf 33 38 6d bf c4 45 34 be
       -0.89050806 -0.82422376 -0.9266388 -0.17604738
000350 fe 5c 0e 3f 54 de 8b 3f 04 3c bc bf e2 e4 b8 bf
       0.55610645 1.0927224 -1.4705815 -1.444485
000360 38 e0 fb 3c 72 e3 93 3f 19 34 90 bf ff 83 0e c0
       0.030746564 1.1553786 -1.1265899 -2.2268064
000370 92 24 0e c0 83 bf 96 bf b4 69 ad bf db 64 bf be
       -2.220982 -1.1777195 -1.3547883 -0.37381634
000380 5f eb 38 bf ea 07 61 3f 57 90 bd bf 57 5e 9e 3f
       -0.7223415 0.879027 -1.4809674 1.237254
000390 c7 2b 99 bf 11 b2 31 c0 41 9f e4 3e 98 db e9 bf
       -1.1966485 -2.7764933 0.4465275 -1.827014
0003a0 0c 59 0e c0 1b fa 19 bf 29 97 94 3f e7 d6 2a bf
       -2.224185 -0.60147256 1.160863 -0.66734165
0003b0 1d 4f 1e c0 ba c3 b6 bf 08 96 ab 3e 03 34 c0 3d
       -2.4735787 -1.4278481 0.33512902 0.093849204
0003c0 5b b0 ef bf 53 78 83 bf 61 5d 4a 3f 33 47 43 bf
       -1.8725694 -1.0271095 0.79048735 -0.76280516
0003d0 79 6b 1f c0 4e 41 80 bf 4b 10 12 40 a2 ed 86 c0
       -2.4909346 -1.001993 2.2822444 -4.216508
0003e0 29 6b e8 be 75 5f 17 bf bc ba 78 bf 39 5f 9d 3e
       -0.45394257 -0.5913003 -0.97159934 0.30736712
0003f0 d4 c3 ce bf fc 64 a0 bf 81 cf cc bf 75 97 70 bd
       -1.6153512 -1.2530818 -1.6000825 -0.05873819

lstm.bias_hh_l0 f4 [256]
000000 e7 5b bf 3f 01 64 27 3f 0b 64 dc 3f 16 62 bd bd
       1.4949921 0.6538697 1.7218031 -0.09247224
000010 f4 8c fd bf 7a 80 11 40 3c 9e a2 bf 06 d3 8e bf
       -1.980864 2.2734666 -1.2704539 -1.1158149
000020 73 04 9b 3f 0e bb a8 be b5 96 7c bf 35 7e 39 3d
       1.2110733 -0.3295521 -0.9866746 0.045286376
000030 f8 19 5d bf c4 7b bf 3f 0e 0b c4 bf 03 b6 98 bf
       -0.8636775 1.4959645 -1.5315874 -1.1930546
000040 5c 0b 82 bf db 4d b2 bf ef 9c 53 bf 9c c6 00 c0
       -1.0159717 -1.393001 -0.82661337 -2.0121222
000050 47 23 61 bf 9f 6d 83 bf c9 78 af 3e e0 13 75 bf
       -0.87944454 -1.0267829 0.3427184 -0.9573345
000060 fd 1c a9 bf fc b4 c8 bf bb 71 11 3f f2 eb 5f 3f
       -1.3211972 -1.5680232 0.56814164 0.874694
000070 86 d3 ca bd b7 01 4b 3f 8e 49 b1 bf ca 7e 98 3e
       -0.09903626 0.7929949 -1.3850572 0.29784232
000080 a9 31 5e 3f de 01 20 be c0 8c bd be 28 ac aa bf
       0.86794525 -0.15625712 -0.37021446 -1.3333788
000090 1e 44 36 bf 5c 07 e0 3d fc 40 cc 3d 24 d6 9f 3e
       -0.7119769 0.10938904 0.09973332 0.31218064
0000a0 32 ae cf bf 94 79 63 3f ec 44 19 bd 63 4c 92 3f
       -1.6225035 0.8885739 -0.037419245 1.1429561
0000b0 46 c8 9f 3f 10 e8 dd 3d ba ac 23 bf 17 3f c8 bf
       1.2482994 0.10835278 -0.63935435 -1.5644253
0000c0 bf e8 ad 3f d7 26 cd 3e 61 b4 bc be 30 c3 c0 be
       1.3586653 0.40068695 -0.36856368 -0.37648916
0000d0 26 05 d9 be 55 4f 74 bf 84 bc d6 3f 5f f7 0a c0
       -0.4238674 -0.9543355 1.677628 -2.1713483
0000e0 24 a0 a5 be ac c2 5d bf 69 71 39 bf ba 0a 9a 3f
       -0.3234874 -0.8662517 -0.72438675 1.2034523
0000f0 4d d3 90 bf 96 69 2d be 72 26 a1 3f 77 6b ef 3d
       -1.1314484 -0.16934809 1.2589858 0.11690419
000100 b8 1b 5f c0 79 68 82 bf b6 cd 6f be 5c b2 03 40
       -3.4860668 -1.0188133 -0.23418316 2.0577612
000110 f1 60 14 be e3 15 27 3f 0d 2b 05 c0 12 5f 4a bf
       -0.14490105 0.6526777 -2.0807526 -0.79051316
000120 ee 65 82 3e 75 68 9d bf cf 23 0b c0 15 8e f7 bf
       0.2546839 -1.2297503 -2.1740606 -1.9340235
000130 63 6a ea bf b8 83 5f bf 6d f8 c7 3e 9a 0a 96 bf
       -1.8313717 -0.8731036 0.3905672 -1.1721985
000140 d7 28 fb 3e 06 be 0b bf f6 90 97 bf 71 f5 b2 be
       0.49054596 -0.5458683 -1.1841114 -0.34952882
000150 aa 69 7c bf c4 66 d4 3e 95 b0 03 c0 a9 1a f0 bf
       -0.9859873 0.41484654 -2.0576527 -1.8758136
000160 94 a9 05 c0 5a 29 09 c0 57 78 0d c0 68 80 bd be
       -2.0884752 -2.143149 -2.21047 -0.3701203
000170 58 db fc bf c3 fe f4 bf d5 c2 c4 bf 90 2f 08 c0
       -1.9754438 -1.9140247 -1.5371958 -2.127903
000180 bd 51 0f c0 44 e5 bc bf 13 76 d2 3e e0 26 10 c0
       -2.239364 -1.4757466 0.41105708 -2.2523727
000190 a3 99 ee bf 86 32 0b be 00 56 a5 bf 35 e2 85 bf
       -1.8640636 -0.13593492 -1.291687 -1.0459658
0001a0 41 7c ae 3f d4 b2 20 c0 0b d6 4f bf 85 f3 e0 3f
       1.3631669 -2.5109148 -0.8118598 1.7574316
0001b0 0f 22 0c be 11 e2 65 bf 75 1a 36 c0 da f1 b1 bf
       -0.13684867 -0.89798075 -2.8453648 -1.3901932
0001c0 a1 21 54 c0 4c 9c 06 bf d4 12 c0 bf 06 1b 6d 3f
       -3.3145525 -0.5258224 -1.5005746 0.9261936
0001d0 1f a4 8e bf 9d 5c a8 bf e2 ad dd bf 65 eb f3 be
       -1.1143836 -1.3153263 -1.731869 -0.4764053
0001e0 4e 96 9a bf 14 8c 8b bf 23 31 cb bf 58 04 08 c0
       -1.2077119 -1.0902123 -1.587437 -2.1252651
0001f0 8e bc d2 bf cd 5a e6 bf a7 70 bb bf 07 6c 37 c0
       -1.6463792 -1.799646 -1.4643754 -2.8659685
000200 9f 3b 20 3f 9d f1 bb bf 64 62 63 3f 78 41 26 3f
       0.62590975 -1.468311 0.8882201 0.6494365
000210 a5 00 84 be 21 a9 cf be 74 f0 3e bf 6f 25 21 bf
       -0.25781742 -0.40558723 -0.7458565 -0.62947744
000220 4a 0f d6 3f dd f7 87 3e e0 3d 71 3e 80 de 09 bf
       1.6723416 0.26556292 0.2355876 -0.53855133
000230 97 00 c7 3f 6c f4 47 bf 7e 3e cf bf 26 8a c3 bf
       1.5547055 -0.78107333 -1.6190946 -1.5276535
000240 36 bc 25 3f c0 dd 88 be 87 92 87 bf 6e c2 3f 40
       0.6474031 -0.26731682 -1.0591592 2.996242
000250 94 18 07 c0 af 19 0f bf 44 1a 00 40 e7 fd 9c 3e
       -2.1108751 -0.55898565 2.0016031 0.30662462
000260 47 76 c8 bf 54 8e 98 3f bd 91 40 bc 8e 2d bc 3e
       -1.5661095 1.1918435 -0.011753497 0.36753505
000270 92 31 9a 3f 0f 24 c2 3e cd 59 df bf da e6 66 bf
       1.2046378 0.37918136 -1.744928 -0.90196
000280 49 73 6f bf 47 eb 80 bf b9 5e 36 40 12 52 7c bf
       -0.93535286 -1.0071801 2.8495314 -0.9856273
000290 b9 1d c8 be e9 a8 1f 3d 18 42 93 bf de 37 c8 3f
       -0.39085177 0.038979445 -1.1504545 1.5642049
0002a0 f0 6f 47 3e cb 3f fd 3f 95 18 d4 3e 1f 78 49 3f
       0.19476295 1.9785093 0.41425005 0.78698915
0002b0 81 39 e6 bf 7d fa 5a 3f 54 7d 1e 3e 89 f0 b8 3f
       -1.7986299 0.85538465 0.15477496 1.4448406
0002c0 c3 64 20 be ab 56 b5 be 63 db f9 3f 7c 00 77 3f
       -0.15663438 -0.35417685 1.9520077 0.96485114
0002d0 b3 71 78 3e e3 34 99 3f 68 2d d1 be ed 48 4b 3f
       0.24262123 1.1969265 -0.40854955 0.7940815
0002e0 bc cc cc bf d2 c6 f8 be f0 d7 84 3e 0b fe 0a 40
       -1.599998 -0.48589188 0.25945997 2.1717556
0002f0 e5 a2 8d bd 92 77 dd 3f 00 bd a3 bf 25 e8 f6 3e
       -0.06915835 1.7302115 -1.2792053 0.48223987
000300 af 93 04 40 a5 1e 15 3f 99 43 18 c0 b6 58 7e 3f
       2.071514 0.58249885 -2.3791258 0.9935411
000310 c9 e6 81 bf e9 69 02 c0 58 70 b8 3f cd a6 3c bf
       -1.0148555 -2.0377142 1.4409285 -0.7369202
000320 9c 8a 9a 3f 12 aa 26 be 9a ee 83 3e 43 f0 e5 bf
       1.207355 -0.16275814 0.25767976 -1.7963947
000330 bd 67 9c bf dc 48 16 c0 5b 62 a0 3e 6a 12 73 3f
       -1.2219158 -2.348197 0.3132504 0.9494997
000340 40 c4 45 bf e6 8c 67 bf ed 06 6f bf 05 a5 55 bd
       -0.7725258 -0.9044937 -0.9336994 -0.052159328
000350 e0 3e f2 3e 0b 9a 98 3f dd de c9 bf 55 14 b6 bf
       0.47313595 1.192201 -1.5771137 -1.4224955
000360 68 05 9d bd c7 5b 93 3f aa a3 8e bf 44 27 12 c0
       -0.07667047 1.1512383 -1.1143696 -2.2836466
000370 21 0d 0e c0 57 dd a6 bf fb 58 9b bf 29 79 86 be
       -2.2195513 -1.3036298 -1.213653 -0.26264313
000380 e7 25 39 bf 6a b2 4e 3f 32 dd ae bf 6e 1b a5 3f
       -0.7232346 0.8074099 -1.3661253 1.2898996
000390 6e 14 ad bf 0f cc 2d c0 b7 06 10 3f 63 e2 ea bf
       -1.352186 -2.7155797 0.56260246 -1.8350338
0003a0 ab 0e 0d c0 6e ee 27 bf 69 40 8b 3f bd ae 26 bf
       -2.2040203 -0.6559819 1.0879031 -0.6511038
0003b0 c3 81 26 c0 d7 b7 b2 bf 92 d1 a7 3e 5c 9d 05 3e
       -2.60167 -1.3962353 0.32777077 0.13048309
0003c0 a9 6a 01 c0 13 a8 89 bf 33 eb 52 3f c4 80 53 bf
       -2.022135 -1.0754417 0.82390136 -0.82618356
0003d0 63 ae 1f c0 a8 c5 5c bf a3 84 0d 40 82 1d 85 c0
       -2.4950187 -0.862391 2.2112205 -4.159852
0003e0 47 5c c9 be a0 2e 0e bf 39 31 6a bf 61 71 f9 3e
       -0.39328215 -0.55539894 -0.9148136 0.48719314
0003f0 a3 10 d5 bf ae ab a3 bf 27 1b c6 bf e4 f9 b1 3d
       -1.6645702 -1.2786767 -1.5477036 0.08690241

lstm.weight_ih_l1 f4 [256, 64]
000000 a4 13 fe 3d 36 88 80 be 99 49 42 be c7 d3 e4 bf
       0.1240609 -0.2510392 -0.18973388 -1.7877129
000010 17 b5 bb bf aa be 29 bf 1b 1d 81 3e 45 d3 cc bf
       -1.4664639 -0.66306555 0.25217518 -1.6001974
000020 9e 0f a1 bf 14 70 5b 3f 61 42 bd bf 93 07 fa 3e
       -1.2582891 0.8571789 -1.4785882 0.48833904
000030 4c 64 58 bf 9a 46 05 3f c7 cc 20 c0 86 af 2f bf
       -0.8452804 0.52060854 -2.5124986 -0.686272
000040 2a 5e 2f 3f c8 14 7d bf 5c d8 11 3e 9e 97 c1 3d
       0.6850306 -0.98859835 0.14242691 0.09452747
000050 61 c8 0a be cc 5b dd bf 18 27 ad bf 51 53 40 bf
       -0.13553001 -1.7293639 -1.3527555 -0.7512713
000060 72 36 85 bf 5c e0 53 3f ec e6 37 3f 05 0e 45 bf
       -1.040724 0.8276422 0.71836734 -0.7697452
000070 62 b1 7c 3d 4a 15 c6 be 5b 94 36 bf 8e f3 05 bf
       0.061692603 -0.38688117 -0.7132012 -0.5232476
000080 fe e4 46 3f 5d 81 1b 3e b6 09 5c bf 20 cb f5 3e
       0.77693164 0.15186067 -0.8595232 0.48006535
000090 a1 91 44 bf 5a 6d 0b bf 34 b6 bc be 1d ed 81 3f
       -0.7678471 -0.5446373 -0.3685776 1.0150486
0000a0 c6 1f 33 bf 63 ad 8a 3e 56 ad 78 3f 51 0b dc 3f
       -0.6997036 0.2708541 0.9713949 1.7190953
0000b0 5d 8d 00 bf 1d 18 b9 be d3 0c 4b bf 30 20 04 c0
       -0.50215703 -0.3615121 -0.79316443 -2.0644646
0000c0 3a 29 3f 3f 5a dc e8 be 23 94 cd 3e 0b 77 3e 3e
       0.7467228 -0.45480615 0.40152082 0.18600099
0000d0 e8 35 9a 3e a2 cf a5 3f 3c 57 10 40 41 ec 82 bf
       0.30119252 1.295399 2.2553244 -1.0228349
0000e0 a0 a2 2a 40 f8 d5 23 c0 38 9d 63 bf de d2 30 3f
       2.6661758 -2.5599346 -0.8891177 0.6907176
0000f0 56 b7 ef bf 1b a0 31 3f e3 d4 44 bf 14 04 66 bf
       -1.8727825 0.69384927 -0.7688734 -0.8984997
000100 06 6e 55 3e fd 16 f3 bf e5 8a ad bf cc 6f 01 40
       0.20842752 -1.899139 -1.3558012 2.0224485
000110 01 2c eb be 2c 72 34 bf 63 3d 10 3d bc 72 bb bf
       -0.4593201 -0.7048671 0.035214793 -1.4644389
000120 b9 a5 da 3a a1 14 58 bf bc d7 32 bf 4d 17 13 3e
       0.0016681469 -0.8440648 -0.69860435 0.14364357
000130 d8 70 1a 3e 36 55 65 3f 7a 85 42 bf a4 e9 2b bf
       0.15082109 0.89583147 -0.7598492 -0.6715338
000140 e5 c5 1a 3f 6d 0e b9 3f a8 24 88 be 63 e5 92 bf
       0.60458213 1.4457527 -0.26590466 -1.1476253
000150 68 57 71 bf 18 6e 8c 3e 2e c1 21 be 46 1d 51 bf
       -0.94273996 0.27427745 -0.15796348 -0.8168529
000160 d9 1a 54 3f b7 3e a3 3f 4f 67 2d bf 37 46 17 be
       0.82853466 1.2753514 -0.6773576 -0.14772879
000170 76 81 ec 3e 9a 1a ff be 76 b0 07 3f 34 4c 8c bf
       0.4619252 -0.49824983 0.53003633 -1.0960755
000180 52 57 95 3d d0 9f 9f 3e 38 6b c7 3e ad 56 8c 3f
       0.07292046 0.31176615 0.3894899 1.0963951
000190 bd 5f c1 3f e2 7a f6 3d 3b 76 16 3f 3f 03 84 3e
       1.5107342 0.12035157 0.58774155 0.25783727
0001a0 51 33 00 3f 19 c3 96 3e d3 cb b9 bf ec f1 60 bc
       0.500783 0.29445723 -1.4515327 -0.013729554
0001b0 a2 88 f0 bf 0f d2 3c 3e 21 2d 87 bf f0 d5 0b bf
       -1.8791697 0.18439506 -1.0560647 -0.5462332
0001c0 91 c5 80 3d f3 54 fa 3e 2f 6a a5 3e 12 4c dc be
       0.06287683 0.48892936 0.32307574 -0.43026787
0001d0 9a 8f 58 3e 86 9a 81 bf 3c ab aa 3e 12 72 f5 bf
       0.2114853 -1.0125282 0.33333766 -1.9175436
0001e0 06 c9 7c be b2 2f 90 bf 09 9b a2 3e 31 e6 16 bf
       -0.2468606 -1.1264555 0.31758907 -0.58944994
0001f0 5c 16 66 bf f3 9c e7 be cb 9f 09 bf c5 67 5f 3f
       -0.8987787 -0.4523693 -0.5375945 0.87267715
000200 b2 a2 53 3e 4a 47 59 be 1e 3a dc be a8 2c 5d 3f
       0.20667532 -0.21218601 -0.4301309 0.86396265
000210 11 ac 43 3f f9 21 42 c0 e5 03 0f bf 45 a8 dd 3e
       0.7643443 -3.0333235 -0.5586532 0.43292442
000220 00 25 e1 3e 78 cf 27 3f 92 91 f8 bf ed 2c 82 3f
       0.4397354 0.6555095 -1.9419425 1.016996
000230 db ed 9e 3f b2 f1 5e bf 87 13 a8 bf 9b cf 94 3e
       1.2416338 -0.8708755 -1.3130959 0.2906464
000240 3f 81 12 3f a3 e5 11 3f 82 9d 19 40 7b d1 8e be
       0.57228464 0.5699102 2.4002385 -0.27894196
000250 6c 4b 6a bf d9 c6 a2 be a8 00 21 bf 74 db 56 3f
       -0.91521335 -0.31792334 -0.62891626 0.8392861
000260 c8 af a8 bf 4f e9 b5 3f dd c5 2d 3f fc 1c 98 3f
       -1.3178644 1.4211825 0.6788004 1.1883845
000270 40 18 09 40 ad 05 52 3e 93 78 ce 3f 85 e7 64 bf
       2.142105 0.20509978 1.6130546 -0.8941577
000280 98 24 2f 3f 2f fe 96 be 64 f4 32 3f cf 34 39 bf
       0.6841521 -0.29490802 0.6990416 -0.72346205
000290 b0 79 96 3f 11 a1 71 3f 4f 9d ba bf cc 67 b6 3e
       1.1755886 0.9438639 -1.4579257 0.35626066
0002a0 fd 6f 7a bf b7 0d 79 bf c4 48 c9 3f a2 63 67 3e
       -0.9782713 -0.9728655 1.5725331 0.225966
0002b0 6d 28 4c be 31 95 81 3e c0 74 96 bf be f7 1c 3f
       -0.19937296 0.25309137 -1.1754379 0.61315525
0002c0 03 c4 d6 bd 3d ae 96 3f c4 55 a9 3f a4 02 ef be
       -0.10486605 1.1771923 1.3229299 -0.46681702
0002d0 1c 6d 85 3f c5 65 3c bf 4a 2e 7b be 6d 44 e0 bf
       1.0423923 -0.7359279 -0.24529377 -1.7520882
0002e0 cc d8 2c bf f4 ce 8c bd de ee 69 bf ff 67 bc 3f
       -0.67518306 -0.06875411 -0.9138011 1.4719237
0002f0 b6 da 44 bf 53 4e 0c c0 8a 3e 1e bf e3 e1 20 3f
       -0.76896226 -2.1922805 -0.6181418 0.62844676
000300 3d a6 fc be a1 49 6b 3f 32 bc 00 3f c7 ef c5 3e
       -0.4934558 0.91909224 0.50287163 0.38659498
000310 ed 14 e4 bd 78 08 b1 bf d5 31 14 40 f1 c5 d4 be
       -0.11136804 -1.383071 2.3155415 -0.41557267
000320 c5 ca d4 bf 27 2e 84 3f 15 6b a4 bf 5a 56 2c bf
       -1.662438 1.0326585 -1.2845179 -0.6731926
000330 9d aa 37 3e d3 22 8a be 95 27 a5 be c8 dd 6f be
       0.17936178 -0.26979694 -0.3225676 -0.23424447
000340 2f f2 1e 3f 49 69 51 bf 56 f7 c4 3f af 7c 01 c0
       0.6208829 -0.8180128 1.5387981 -2.023235
000350 70 4c 2f bf 6a 1c ec 3e 4b ed 72 3f 57 8c 06 3e
       -0.6847601 0.46115428 0.9489333 0.13139473
000360 25 d0 b5 bf f4 50 3d 3f 2c 54 6a bf d6 91 82 be
       -1.4204146 0.7395165 -0.91534686 -0.2550189
000370 1e b6 4f c0 9e 4a a3 bf 9b a4 58 bf ce 12 bf be
       -3.2454906 -1.2757146 -0.8462617 -0.37319034
000380 4c 80 6e bf 62 fc 18 3e a0 dd 92 bf e2 34 6f 3f
       -0.93164515 0.14940026 -1.1473885 0.9344007
000390 45 f7 90 3f 81 91 5d 3f a8 86 cd bf 2c cb 88 3f
       1.1325461 0.86550146 -1.6056719 1.0687003
0003a0 48 17 8f bf 5f 17 45 bf 32 4a bc 3f d1 2e ac be
       -1.117898 -0.76988786 1.4710143 -0.33629468
0003b0 5f 1b 0f c0 bd 83 ac 3e 06 8e 2a 3f d1 41 40 3f
       -2.2360456 0.33694258 0.6662296 0.7510043
0003c0 fb 5d 8d 3e 34 cb 5a 3f e6 c1 ee 3f e7 9c c9 bf
       0.27610764 0.85466313 1.8652923 -1.5751008
0003d0 57 35 98 3f b6 7d 5c bf 1d b7 1a c0 40 45 97 3f
       1.1891278 -0.8612932 -2.4174263 1.1818008
0003e0 13 1d 2d 3e 16 e5 05 40 26 87 9d 3d b2 8a bd bf
       0.16905622 2.0921073 0.07691793 -1.4807951
0003f0 51 c8 66 3f ac b4 19 3e 42 be 75 3f ea 78 b7 3e
       0.9014941 0.15010327 0.95993435 0.35834438

lstm.weight_hh_l1 f4 [256, 64]
000000 f9 3f c5 3e c7 ff 5f c0 2b 28 84 3f 6d d8 1f bc
       0.3852537 -3.4999864 1.0324758 -0.00975619
000010 3f 42 83 bf 50 4a 2c bf d4 79 05 40 7b 09 9b bf
       -1.0254592 -0.6730089 2.0855608 -1.2112268
000020 68 d1 2e bf e1 79 e4 3f cd 12 b1 3d 12 a6 28 40
       -0.6828828 1.7849694 0.08646164 2.6351361
000030 e3 dd bf bf d4 e2 57 bf 79 8a 1d bf d3 77 ec 3e
       -1.498959 -0.8433049 -0.6153942 0.4618517
000040 38 f0 74 3f 26 bb dc be ad b0 f8 be b0 1a 12 c0
       0.95679045 -0.43111533 -0.48572293 -2.2828789
000050 1e cf 1e c0 31 46 36 3e 96 66 5a 3f b5 7e 6d 3f
       -2.4813914 0.17800213 0.85312784 0.92771465
000060 f7 6f 5f 3f 3d 93 91 3f 7c b6 40 3e bf 69 cf bf
       0.8728022 1.1373059 0.18819612 -1.6204146
000070 b2 9e 90 bf f5 ab c3 bf 80 76 36 bf a5 dc 49 bf
       -1.129843 -1.5286852 -0.71274567 -0.788523
000080 20 db ec bf 42 aa c6 bf 7e 95 48 40 f7 c2 f9 be
       -1.8504372 -1.5520709 3.1341243 -0.4878156
000090 16 5f fe be 93 8a dd be 18 5d 8e bf 0c 72 c8 3e
       -0.4968192 -0.43269786 -1.112216 0.3914951
0000a0 3b 55 43 3f ea d6 0c 3f d8 62 12 bf 23 f6 a6 be
       0.76301926 0.5501543 -0.57182074 -0.32609662
0000b0 30 fe 82 3f f6 a5 78 bf 82 75 15 c0 dd c6 0f c0
       1.0233822 -0.97128236 -2.335297 -2.2465127
0000c0 2c 47 09 40 20 55 9e bf 9f c7 03 40 e1 05 16 bd
       2.144969 -1.2369728 2.059059 -0.0366267
0000d0 11 bd 2d bf 49 4d 81 be 4c c4 15 c0 03 36 cb be
       -0.6786662 -0.25254276 -2.340106 -0.39689645
0000e0 a5 21 0c 3f dc 16 cb 3e 8b 3a 6d bf e7 34 10 40
       0.5473884 0.39665878 -0.92667454 2.253229
0000f0 44 11 84 3f b4 45 db bf e7 5b 0e c0 70 b4 ae 3f
       1.0317769 -1.7130647 -2.2243593 1.3648815
000100 08 31 64 3f dd f4 5d be ad a6 42 3f 3d e9 c3 3f
       0.89137316 -0.21675439 0.7603558 1.5305554
000110 0b 85 76 3e 49 60 2d bf d6 00 a4 bf 95 0d 9c bf
       0.2407419 -0.67725044 -1.2812755 -1.2191645
000120 e2 7f 17 3e bf 11 74 bf 46 4d 8f bf d2 43 15 3e
       0.14794877 -0.9533958 -1.1195457 0.14576653
000130 cc 83 9a 3e 2b 33 3a bf 40 8e f7 3e ad 1b b9 3f
       0.30178678 -0.72734326 0.48350716 1.4461571
000140 b1 f8 8f bf 19 bf b6 bf bc a1 05 3f cc 10 18 bf
       -1.124777 -1.4277068 0.5219991 -0.5940063
000150 40 18 94 be 66 26 f7 3e ac 06 29 3e 5e 23 b9 3e
       -0.2892475 0.48271483 0.16506451 0.36159796
000160 a5 eb 05 40 d6 56 95 3f dc 79 b4 bf 25 fd 24 40
       2.0925076 1.1667125 -1.4099689 2.5779507
000170 06 4f a7 3f 8c 6a b2 bf 0b 1a fe be d0 06 b7 bf
       1.3070991 -1.3938766 -0.49629244 -1.4298954
000180 4a 1d 12 40 61 12 27 3e 3c 56 b9 bf 74 c1 2e 3f
       2.2830377 0.16315605 -1.4479442 0.68263936
000190 4b b7 5b bf 6e 1c fe bf ce c7 1e 40 3d d1 95 bf
       -0.8582656 -1.9852426 2.480945 -1.170448
0001a0 01 04 c4 bf 37 bd d3 bf fe 65 38 bf 53 8b de be
       -1.5313722 -1.6542119 -0.7203063 -0.4346567
0001b0 cf 56 8c 3f 15 a4 89 bd bd a4 af 3e b2 6a 65 c0
       1.0963992 -0.06720749 0.34305373 -3.5846372
0001c0 d9 05 df be fd fd de 3f 2f d9 e9 3e db 50 91 3d
       -0.4355915 1.7421261 0.4567351 0.070955
0001d0 fd 73 de 3d f7 b5 d5 bf 76 d6 a1 bd 2d 72 37 3f
       0.10861967 -1.6696156 -0.07902233 0.71658593
0001e0 d1 60 9e bc 46 73 4d be e5 12 6c 3f 2d 2f 8e bf
       -0.019333275 -0.20063505 0.9221633 -1.1108147
0001f0 d6 be 13 c0 52 64 b5 3f ae 9c 17 be 80 22 a8 bf
       -2.3085227 1.417124 -0.14805862 -1.3135529
000200 6b 95 6e bf 59 9d f4 bf 34 c8 82 3f 1e c3 bd 3e
       -0.93196744 -1.9110519 1.0217347 0.37062925
000210 b8 65 7d 3e c6 6d 3a bf 48 77 e2 3f 0a 46 39 c0
       0.24745834 -0.7282375 1.7692652 -2.8948998
000220 34 95 07 40 8f 79 71 be dc d3 dd 3f 81 18 27 bf
       2.1184816 -0.23581527 1.7330279 -0.65271765
000230 3e a7 db 3f d2 c7 bf 3f 8c e9 ae 3f 29 3b 49 40
       1.7160413 1.4982855 1.3665023 3.1442358
000240 57 0c 0a 40 91 ad 76 3f 93 c2 e1 3f 73 40 78 3f
       2.1570032 0.9635859 1.7637504 0.9697334
000250 7f 2d f9 be 2e 9e b6 3f 33 d5 5d 3f ab e9 06 3c
       -0.48667523 1.4267023 0.8665344 0.008234422
000260 92 79 82 3f f8 8d f5 bd 19 9f 4c 3e e1 3c f4 3e
       1.019335 -0.11989969 0.19982566 0.47702697
000270 3a 99 23 c0 79 49 45 40 8c 7b 14 bf 1e c7 eb bf
       -2.5562272 3.0826094 -0.5800102 -1.8420141
000280 9e 01 b0 3f 4f ba a4 3f 2c de ba 3f 88 57 9a bf
       1.3750494 1.2869357 1.4599051 -1.2057962
000290 cd 1c 3a bf 70 93 81 bf 0e 4e b9 bf 34 4b c5 bf
       -0.72700197 -1.0123119 -1.4476945 -1.5413575
0002a0 cb ba d0 bf b3 1c f5 3e 10 30 3f 3f 62 65 ad bf
       -1.6307005 0.47873458 0.7468271 -1.3546565
0002b0 08 ab 12 bf a8 cf 54 3f 7b 7a dc bd b8 2a e2 3f
       -0.5729222 0.8312936 -0.10765549 1.7669287
0002c0 1d ad 76 40 af b9 52 3f bd 17 6f 3f e6 b7 ce 3f
       3.854316 0.8231458 0.93395597 1.6149871
0002d0 21 98 33 bf a3 e2 03 40 ab 85 0a 3e e5 17 d5 3f
       -0.70154005 2.0607078 0.13527553 1.6647917
0002e0 15 2f ed be 18 85 a3 bf 5f 73 85 be 35 42 99 be
       -0.46324983 -1.2774992 -0.26064584 -0.29933324
0002f0 8c fe 85 3d 93 9f 46 40 9a ca 02 c0 ed 37 a5 3f
       0.065426916 3.1034896 -2.0436158 1.2907692
000300 2a ee 2f c0 e1 da f5 bf 08 37 ee 3e 68 93 52 c0
       -2.7489114 -1.9207422 0.4652636 -3.290247
000310 16 e7 af 3f c5 8a 99 3f 0c 44 b2 3f 20 d3 02 be
       1.3742397 1.1995474 1.3927016 -0.1277585
000320 db 32 b6 3e 61 df 4a 40 5b f2 b4 bf ad 78 92 be
       0.35585675 3.169884 -1.4136461 -0.28607693
000330 61 f8 97 3f e6 96 be 3f b8 72 5f be 19 16 0e bf
       1.1872674 1.48898 -0.21821105 -0.5550247
000340 7f 54 50 3f bd d3 07 3f b9 6c f2 3e 47 fa 44 40
       0.8137893 0.5305746 0.47348574 3.0777757
000350 6e 82 18 40 75 4a ec be f8 71 05 bf 93 b0 94 3f
       2.3829608 -0.46150556 -0.5212703 1.1616386
000360 ee 7e 8c bd 0b 55 92 3f ed 1c 13 bf 18 e6 50 bf
       -0.068601474 1.1432203 -0.5746601 -0.81601095
000370 93 f0 f3 3f 54 6e 08 40 f1 56 f9 3f a8 8a 01 40
       1.9057792 2.131734 1.9479657 2.024088
000380 3c d0 ae 3f 93 20 7d bf fe 9f 9a bf b5 aa d0 bd
       1.3657298 -0.9887783 -1.2080076 -0.1018881
000390 e9 2b 7b 3f c4 ff bc be 31 7d 80 3f 45 76 97 bf
       0.98113877 -0.36913884 1.0038205 -1.1832968
0003a0 e9 2a 6d bf 83 1e 09 40 41 1c 68 3f 9b f1 cb bf
       -0.926436 2.1424873 0.9066811 -1.5933107
0003b0 2e 34 9d 3e 13 a9 94 3d 4b 4b 03 bf d7 fe 60 40
       0.30703872 0.07258811 -0.5128676 3.5155542
0003c0 ef f0 26 c0 a4 2e 0f 3f e2 7a 6a bf 75 26 69 bf
       -2.6084554 0.5593054 -0.91593754 -0.91074306
0003d0 05 6b 8b 3e 8f 3e c7 3e 26 73 ff 3e 82 28 40 3f
       0.27230087 0.38914916 0.4989254 0.7506181
0003e0 47 96 71 bf 55 40 29 c0 ed d7 89 3f 50 1c e4 3f
       -0.9436993 -2.6445515 1.076902 1.782114
0003f0 15 58 14 c0 fc 0c 6c bf 3b 69 36 bf a5 ba 0a 3e
       -2.317876 -0.9220731 -0.7125432 0.13547762

lstm.bias_ih_l1 f4 [256]
000000 e3 df 31 3d f7 76 a3 bf 87 0b 3a bf 12 bb 71 be
       0.043426406 -1.277068 -0.7267384 -0.23606518
000010 fd 3a e8 bf 5a 9f 07 c0 79 42 c3 bf 0d 57 e6 be
       -1.8143002 -2.119101 -1.5254661 -0.4498829
000020 31 21 1f c0 da 3b 69 c0 55 a9 af bf 14 3c af bf
       -2.4864008 -3.644278 -1.3723551 -1.3690209
000030 f8 42 cd bf 24 a9 60 bf 4c 9c 27 c0 2d a3 24 bf
       -1.6036062 -0.8775809 -2.6189146 -0.64311486
000040 65 bd f6 bf d4 ed 30 3d 03 a7 58 bf 1f 18 26 c0
       -1.9276549 0.04319556 -0.8462984 -2.5952222
000050 74 34 53 bf de b5 93 3e 1e 47 00 c0 12 f3 5d bf
       -0.8250191 0.2884969 -2.0043406 -0.8669902
000060 87 60 57 bf 57 41 13 bf df 9e 36 c0 7d 06 ec bf
       -0.84131664 -0.57521576 -2.8534467 -1.843948
000070 43 4f f2 be ed f1 6a 3e 5f f2 0f c0 a3 c0 1c 3f
       -0.47326097 0.2294385 -2.2491682 0.6123144
000080 5c 67 fc bf 6b 1e 62 c0 79 d3 e6 bf b5 ec 31 c0
       -1.9719043 -3.5331066 -1.8033286 -2.7800725
000090 89 c8 fa be 37 e6 4e c0 1d e2 9d bf 30 66 0f c0
       -0.4898112 -3.2328012 -1.2334629 -2.240612
0000a0 f3 65 c8 3d 87 93 5c bf ee e6 20 c0 44 13 38 c0
       0.0978507 -0.8616261 -2.5140948 -2.8761759
0000b0 35 5b 7c bf 67 9f 1a c0 60 2a 69 3e 5b 86 c6 bf
       -0.9857667 -2.4159791 0.22770071 -1.5509752
0000c0 48 29 1b c0 8a 7e 55 c0 c9 fa b9 bf 98 ab 76 bf
       -2.4243946 -3.3358483 -1.4529659 -0.9635558
0000d0 1c 3b 0b c0 dd 33 27 c0 6a 9b 46 bf 76 54 a3 3f
       -2.1754827 -2.6125405 -0.77580893 1.276015
0000e0 f2 bd be bf cb 1d 6b c0 d2 c3 dd bf 00 25 2f c0
       -1.4901717 -3.6736934 -1.7325385 -2.7366333
0000f0 fa b4 7b 3d 07 58 f5 bf 66 2f 8a 3e 41 1e 16 c0
       0.06145189 -1.9167489 0.26989287 -2.3455966
000100 51 7b 12 c0 3f 85 2d c0 e8 18 19 c0 c8 1a bd bf
       -2.2887766 -2.7112577 -2.3921452 -1.4773798
000110 4f 4a 44 3e 13 71 e1 bf 5d 9c 8a bf 89 d3 59 c0
       0.19168971 -1.7612633 -1.0828968 -3.403536
000120 0b 78 6e bf 92 10 e8 3f 92 96 c1 bf 92 aa 23 c0
       -0.9315192 1.8130057 -1.5124075 -2.5572858
000130 d8 3c 2a c0 6c f3 30 c0 f4 af bf bf 5d 4c 5f 3d
       -2.6599636 -2.7648573 -1.4975572 0.054516185
000140 4b 18 01 bf 9f 89 bb bf b7 55 a9 bf 07 2c 92 3f
       -0.50427693 -1.4651374 -1.3229283 1.1419686
000150 7f 6d ca bf 61 47 26 3e 9e 35 9c 3d 38 5f 0f bf
       -1.5814666 0.16238166 0.07627414 -0.5600467
000160 55 b3 24 c0 85 77 8b bf b3 13 45 40 23 02 7f bf
       -2.5734456 -1.089585 3.0793273 -0.99612635
000170 8f 56 83 bf f0 f3 f5 bf d1 c0 af 3e 68 2d 8c bf
       -1.026079 -1.9215069 0.34326795 -1.0951357
000180 8f 81 c1 bf bf 43 0f 3f 01 37 df 3e 61 b7 5a bf
       -1.5117663 0.5596275 0.43596652 -0.85436064
000190 31 f7 9c bd 75 f2 47 bf d1 eb b0 bf d2 93 b9 bf
       -0.076643355 -0.78104335 -1.3821965 -1.4498236
0001a0 49 29 c1 3f 84 10 5d c0 ee 1c 42 c0 59 9d ce bf
       1.5090724 -3.454133 -3.0330157 -1.6141769
0001b0 0e 3d 29 c0 67 93 52 3f f4 77 1b c0 77 c4 e9 3e
       -2.6443515 0.8225617 -2.4291964 0.45657703
0001c0 61 47 b5 be 16 98 60 be 76 8f f7 bf 88 2d 11 c0
       -0.3540602 -0.21933016 -1.9340656 -2.268404
0001d0 83 09 d1 bf 8b 11 33 3e 5b 9c 62 c0 1f b1 df bf
       -1.6331028 0.17487161 -3.5407932 -1.7475928
0001e0 38 9b 1b c0 29 13 bb bf 3b 40 8a 3f db a9 49 c0
       -2.4313488 -1.4615222 1.0800852 -3.1509922
0001f0 81 25 b7 bf ee 7b 4e bf 8c 2a b6 be 3a ee e7 3e
       -1.430832 -0.8065785 -0.35579336 0.4529894
000200 f1 83 8d 3f d7 d2 f7 3e 1c 0c 01 40 f3 f1 25 3f
       1.105589 0.48403046 2.016364 0.6482231
000210 93 40 16 be d8 3b eb bd d4 f2 ab bf 86 4e 11 be
       -0.1467307 -0.11486024 -1.343348 -0.1419011
000220 3b 90 66 3e 52 d7 8c 3e 46 d3 12 bf 0e 63 8d bf
       0.22515957 0.27508026 -0.5735363 -1.1045854
000230 55 90 af be 90 df fb be 14 0b 8f 3f 3e 8e 5a be
       -0.34289804 -0.49194002 1.1175256 -0.21343324
000240 76 02 7f bf 1c c3 80 3f 93 62 eb bd 5e e1 76 3f
       -0.9961313 1.0059543 -0.11493411 0.96437633
000250 f9 ef 95 3f af 25 a2 3f 8b 33 f8 be 33 94 47 3f
       1.1713859 1.266775 -0.48476824 0.7796051
000260 1f ed 0b bf c8 cb d2 bf c2 55 a6 bf 46 4a f2 be
       -0.54658693 -1.6468439 -1.2994921 -0.4732229
000270 1c 07 d9 bf fd 44 31 bf ce 7b 95 be b9 81 a3 be
       -1.6955295 -0.6924589 -0.29196018 -0.31934908
000280 66 e9 14 3f ca fd 26 be 48 88 05 3f 92 c6 b8 bf
       0.5816864 -0.1630775 0.52161074 -1.4435599
000290 e2 da 6c 3e be d9 15 3f 0b 9a 23 3e 84 23 a9 be
       0.23130372 0.58535373 0.15976731 -0.3303491
0002a0 fb 0c 16 bf 5e a8 9d bf 51 bf 9c bf 03 35 16 be
       -0.58613557 -1.2317007 -1.2245885 -0.1466866
0002b0 bd 2f e8 3f 38 e0 67 be b6 81 98 be 97 4d 2a bf
       1.8139569 -0.22644126 -0.29786462 -0.6652464
0002c0 af 1f 06 be a0 a1 1a 3f fa 78 7d 3e 35 fd 14 3c
       -0.13098024 0.6040287 0.2475318 0.009093572
0002d0 23 1c 73 bf c9 f3 99 bf 80 9f 7b 3e e8 7d 46 bf
       -0.9496481 -1.2027522 0.24572563 -0.7753587
0002e0 85 d6 9c 3f 6d 15 7f 3f 1b 21 78 3f 56 89 70 bf
       1.2252966 0.9964207 0.96925515 -0.9395956
0002f0 18 eb fb 3f 3f 9f 00 bf 5c a3 05 40 22 1b 0f bf
       1.968112 -0.5024299 2.0880957 -0.55900776
000300 de a8 73 3f 75 53 26 3f 79 2e 05 be 3e 33 93 bf
       0.95179546 0.64971095 -0.13006009 -1.1500013
000310 ba 1b 41 bf f4 62 12 c0 bb f8 e7 bf b7 3e 91 bf
       -0.7543293 -2.2872896 -1.8122782 -1.1347264
000320 82 88 b5 bd 7f 4b 9f bf 77 b8 a1 bf dd 72 8e bf
       -0.088639274 -1.2444915 -1.2634419 -1.1128803
000330 9e f5 63 3d 6f 5a b1 bf 2e 86 e2 bf bd e2 b9 3e
       0.05565416 -1.3855723 -1.7697198 0.363058
000340 ab c6 ab bf 7d 31 34 3f e9 53 db be 7a eb fe bf
       -1.3420004 0.70388013 -0.42837456 -1.9915612
000350 53 9f 13 3f 44 68 73 be c9 d7 0d c0 dc d5 f8 bf
       0.57664984 -0.23770243 -2.2162955 -1.9440265
000360 da 62 22 bf 2a 52 4e bf 8c 56 5a bf c9 e6 aa 3e
       -0.63432086 -0.8059412 -0.8528831 0.333792
000370 9a ec 92 bf 19 a5 39 bf 21 f5 c8 bf 30 38 3b bf
       -1.1478455 -0.72517544 -1.5699807 -0.7313261
000380 97 c6 a9 bf c1 e7 d0 bf fe 7b 08 bf 26 f5 78 bf
       -1.326373 -1.6320726 -0.533142 -0.97249067
000390 e7 0e 8b bf 2c 20 92 bf 5b 3f 43 c0 32 59 d9 be
       -1.0863923 -1.1416068 -3.050742 -0.42450863
0003a0 72 8c 33 be 01 67 ef 3e ed e1 c4 bf ea 1f 2b c0
       -0.17534044 0.46758273 -1.5381447 -2.6738229
0003b0 12 4d bf bf 6e 31 dd be a1 38 f8 be 45 de f8 bf
       -1.4945395 -0.43201774 -0.48480704 -1.9442831
0003c0 d7 fd 9c bf d2 8b 0a bf 47 83 63 be 30 7e 2e c0
       -1.2264966 -0.541196 -0.22218047 -2.7264519
0003d0 3d fd 16 bf bd 4d 38 c0 f9 f8 d5 bf 18 93 01 c0
       -0.5898016 -2.8797448 -1.6716605 -2.024603
0003e0 98 08 8b bf 57 22 3d c0 70 09 c0 be 90 83 c6 bf
       -1.0861998 -2.955221 -0.375072 -1.55089
0003f0 49 69 fb be 3c c1 ad bd c5 13 13 3f 71 0c b6 bf
       -0.49103764 -0.08484122 0.5745204 -1.4222547
