src/controller_rl/best_agent.pt (torch, 108981 bytes, 38 tensors)

log_std_parameter f4 [4]
00000000: 3f6c 07c0 63a2 c8bf 2899 b2bf e2d8 c8bf
-2.1159818 -1.5674556 -1.395299 -1.5691187

net_container.0.weight f4 [64, 19]
00000000: 293b 69be 2599 683e fae8 a8be e4a9 1d3d
00000010: af7f 5a3e 0d61 433d b32e 1e3f d7d9 073e
00000020: 32f8 8bbe 4343 eebd 6082 76bc ca3c be3e
00000030: ac61 81bd a56a 973c d7e5 623e c673 b5bd
00000040: 22ce 4bbe 28ff 3bbd a84a 833e bdda 09bd
00000050: 5472 b73e 0ece dbbe 17c7 3b3e 8a48 733d
00000060: f11e 4abe e08d 253f a8cb b9be a578 b6be
00000070: 8368 ecbd 0fa0 1e3c 61cc 18bf 3941 283e
00000080: 8828 7fbd 94a6 043f 60d9 27bd a798 353d
00000090: 2b11 ffbd 2b0a 0abe ef2e fa3e eabb 9e3e
000000a0: e039 473f eec1 b13d e8ca 97bd 04bd 513e
000000b0: 1ea0 093e 8790 97be 6af7 7ebe 9125 f1bd
000000c0: 1d97 1ac0 d5e1 b3bd baab 01bf 2af4 1fbe
000000d0: 5090 2a3e 7b14 7dbd 4a83 cbbd b58e 8dbd
000000e0: 3af7 6d3d fe94 babe 5369 1abf d138 813d
000000f0: d0e8 84be 5c21 b7bd 4d41 acbd 4982 8b3c
00000100: 3a60 06bd ad82 99be 3479 473e 3af7 dfbc
00000110: 272f c8be 265c e63e cfcd db3d a9f3 c83d
00000120: c81d ba3d 3ac1 5e3c 9b7d 61bb 48f1 aebd
00000130: 93e9 a53e 73c5 bcbd 451d 453f f05a 8ebc
00000140: 671f 203a 774f 62bd 9709 3bbe 4eaf ab3d
00000150: a02e 463e 13c3 b53d e26a 06bf 5557 bebe
00000160: b786 f4be 7f83 8bbd f3e3 c2bd ecb4 0cbd
00000170: 2594 2f3e 5c23 643c e303 82bd adbb eebd
00000180: 70e8 223d ee90 1a3f 50bf be3d 14a1 4c3d
00000190: bb7d 47bc 1ee6 7c3d 6547 85bd 78cd 80bd
000001a0: 43c8 8a3d 874c 0c3e 3462 0f3e 9480 453e
000001b0: e944 413e 4988 763c 674a 07bd 428f 16be
000001c0: 73ae e73d 5f0d c5bd 3750 373f b987 473f
000001d0: 6530 073f b4b3 893d 82e0 e23d c070 24be
000001e0: abc2 cebd 6f54 c6bd 471f 283f 16c7 433c
000001f0: 2071 85bf 3055 70bf c561 093e 129e 08be
00000200: 7bfb a43d 2f64 9abe 7cd9 8d3d e4fc 803d
00000210: 4b90 713e 46b3 963e 0b1a 82be 6856 c43e
00000220: dc96 5d3e 26ff 4c3d 90f8 15be e4be 3ebe
00000230: a2ec 083e 7243 943e 49bf 92ba 4768 17bf
00000240: 2d72 443e ed2d 1cbf 2060 ab3e 5fac fb3c
00000250: 8513 6fbd bd61 d6bc 824c 713d 0323 5f3d
00000260: 21f5 fa3e 972a 50bf ebbc 6c3e 8fb6 c23d
00000270: ccd7 b73d 723d 68be b79f 62bb 264e 3e3a
00000280: c478 043e f702 7f3d 3639 06bf cbb6 a2bd
00000290: edad 74bd febe c73d de3f 1fbd 40d4 8d3d
000002a0: 8a6c 69be 5afb 9b3d 9f57 debd f7ec 8c3c
000002b0: eb5f 5abd f49c 5fbe fc47 863d da9d cebc
000002c0: 29cc 99bd d3ad 783e 7177 d33d 3f36 143c
000002d0: 26ad 38bd 7df0 053f a4ce 023e 28ea c23e
000002e0: 7573 823d 80da 97be 56b5 27bd 1bdc 9dbd
000002f0: 9f85 143d 7b19 6e3d 33eb 603d ee41 96be
00000300: 8af9 a23e 27bc 3e3e 881a 3bbe e52c 1bbe
00000310: 2ddd 303f 3850 2e3b c300 1dbe 0b8e 32be
00000320: 3bec 4dbd 0dc2 a6be 1bad 2abe 8336 ddbd
00000330: 16bc 0b3e ba35 61bd 6473 84bc 643a dc3d
00000340: bd5f acbc 379d 5d3e 0d55 d5be 1221 59bf
00000350: 2c63 4abc 980a 06be a958 adbd 0665 a93d
00000360: 4523 063e df55 233e b344 f0bc 472e 613b
00000370: aec1 783d f048 ef3e ad47 583e be16 b83d
00000380: 9dfc 94bd 4343 90bc d9a6 903d 7328 193b
00000390: 4f9e 033e 4740 223d 1ed4 233f c713 56bd
000003a0: 679d abba 8d07 d1bd 36be fbbd 9256 89be
000003b0: d806 0dbe feab 453d 2548 c4be f893 0abf
000003c0: 0c13 a6be a001 aebd d4af d5bd c50f 483d
000003d0: cdd8 fd3d 50df ba3d e2df fbbd a849 e1bd
000003e0: 1e99 71be f53c 8a3e ab1e 173f f7e6 483e
000003f0: 2cef 22bd ed7a 2dbe 13c8 9e3d a962 a83d
-0.22776474 0.2271467 -0.32990247 0.0384921 0.2133777 0.047699977 0.6179001 0.13266693
-0.27337795 -0.11633923 -0.015045732 0.37155753 -0.063174576 0.01848347 0.2215799 -0.08859973
-0.19902852 -0.045897633 0.25642896 -0.03365587 0.35829413 -0.42930645 0.18337665 0.05939535
-0.19738366 0.6466961 -0.3628819 -0.3563892 -0.115433715 0.009681716 -0.5968686 0.1643113
-0.062294513 0.5181668 -0.04097879 0.044335034 -0.124544464 -0.13480441 0.48863932 0.31002742
0.77822685 0.08679567 -0.07411748 0.2048226 0.13439986 -0.29602453 -0.24899068 -0.11774743
-2.4154732 -0.087833084 -0.5065266 -0.15620485 0.16656613 -0.06178711 -0.09937151 -0.06911985
0.0580971 -0.36441797 -0.6031696 0.06309665 -0.25958872 -0.0894191 -0.08410893 0.017029898
-0.032806613 -0.2998251 0.19479829 -0.027339566 -0.39098474 0.4499218 0.10732614 0.098120995
0.090877116 0.0135958735 -0.0034407142 -0.085421145 0.32404765 -0.09217348 0.76997787 -0.017377347
0.0006108195 -0.055251565 -0.18265377 0.08383046 0.19353724 0.08875098 -0.5250684 -0.37176004
-0.4775903 -0.0681219 -0.09516134 -0.034352228 0.17146356 0.013924446 -0.063483976 -0.1165689
0.03977245 0.60377395 0.09313834 0.049958304 -0.012175973 0.061742894 -0.06507758 -0.0628919
0.06776478 0.13701068 0.14002305 0.1928733 0.18873943 0.015047141 -0.03302994 -0.14703086
0.113125704 -0.09621691 0.71606773 0.7794147 0.5280822 0.06723729 0.11077978 -0.16058636
-0.10095724 -0.09684073 0.65672725 0.011949321 -1.0425148 -0.93879986 0.13416202 -0.13341549
0.080557786 -0.3015456 0.069262475 0.06298235 0.235902 0.2943365 -0.25410494 0.38347173
0.2163958 0.050048016 -0.146456 -0.18627506 0.13371518 0.28957707 -0.0011195923 -0.5914349
0.1918418 -0.6100758 0.33471775 0.030721841 -0.058368225 -0.026169652 0.058910854 0.05447675
0.49015144 -0.81314987 0.23118941 0.095074765 0.08976707 -0.2267969 -0.003458006 0.000725957
0.12936693 0.062258687 -0.52431047 -0.07945021 -0.05973618 0.09753226 -0.038879268 0.06925249
-0.2279531 0.07616301 -0.10856556 0.017202837 -0.05331413 -0.21837217 0.06556699 -0.025221754
-0.075096436 0.24285059 0.10325516 0.009046136 -0.045087002 0.5232008 0.1277414 0.38069272
0.06369678 -0.2965889 -0.04094442 -0.077079974 0.036260244 0.05812977 0.054911803 -0.29347175
0.31831008 0.18626462 -0.1827184 -0.15153845 0.6908749 0.0026598107 -0.15332322 -0.17436998
-0.050274115 -0.32569924 -0.16667597 -0.10801413 0.13645968 -0.05498288 -0.016168304 0.10753325
-0.021041745 0.21642004 -0.4166645 -0.84816086 -0.012352746 -0.13089979 -0.08464176 0.08271222
0.13099392 0.15950726 -0.029329633 0.003435986 0.060731582 0.46735334 0.21121092 0.08988713
-0.07274745 -0.017610198 0.07063074 0.0023370057 0.12853359 0.03961208 0.6399554 -0.052264955
-0.0013093174 -0.10206518 -0.12292139 -0.2682386 -0.13772142 0.048259728 -0.38336292 -0.5413203
-0.32436407 -0.08496404 -0.10433927 0.048843164 0.12394867 0.09124625 -0.12298562 -0.11000377
-0.23593566 0.26999632 0.5903117 0.19619356 -0.039778873 -0.16941424 0.07753005 0.08221943

net_container.0.bias f4 [64]
00000000: 4a60 77be ffb3 7fbe 435b 44be 37a0 a4b9
00000010: 19d1 37bc 421f f53d 27aa 4d3c 77cc 84bd
00000020: 8788 a23c 3120 113e 6808 89bd 0ec0 42bd
00000030: 9342 de3c bff6 34be 51b8 cb3d 96bd 88bd
00000040: 63cb 2dbe ac75 0abe 278d 1c3d d81c 6dbe
00000050: 1d5d ce3d 81bd 73bb b737 0abe 6c9f 09be
00000060: f3d9 50be e111 80bd 3f99 94be a7bd f8bd
00000070: 7eac 5bbe e811 04be ff49 03be e6fb 2fbe
00000080: 7279 57bb d8e9 7cbe 21f5 ae3d 70f1 d33a
00000090: 0f4e 16be b5ea d3bd 8fe4 0f3e d84f a1be
000000a0: c7eb 8ebe bb5d 2ebd 14cf 5abe 7979 ccbd
000000b0: e44c 973c b594 7dbe f6bd 81bd ef7e 9dbe
000000c0: 8b6d 9d3d c799 c8be eae9 88be 213c 61be
000000d0: c1a4 95bd 18f6 573d 9585 59be 5a44 92be
000000e0: 075a d5bb 340d 4bbe 3248 973d 5d39 51bd
000000f0: 0212 acbe 1f74 d83d a44b 9b3d e756 f0bd
-0.24157825 -0.24971007 -0.19175439 -0.00031399887 -0.011219286 0.119688526 0.0125527745 -0.06484311
0.019840492 0.14172436 -0.066910565 -0.04754644 0.027131354 -0.17672251 0.09947265 -0.06676786
-0.16972117 -0.13521451 0.03822055 -0.23155534 0.10076354 -0.003719181 -0.13497816 -0.13439721
-0.20395641 -0.0625341 -0.29023167 -0.12145548 -0.2145252 -0.12897456 -0.12821196 -0.17185935
-0.0032878784 -0.2469858 0.085428484 0.0016169976 -0.14678214 -0.10347501 0.14052032 -0.31506228
-0.2791426 -0.042569857 -0.21368057 -0.099841066 0.018469281 -0.24763758 -0.0633506 -0.30760905
0.07686909 -0.39179823 -0.26740962 -0.21995594 -0.07306815 0.052724928 -0.21242364 -0.28567773
-0.0065109762 -0.19829255 0.07386817 -0.051080097 -0.3360749 0.10569023 0.07582787 -0.11735325

net_container.2.weight f4 [64, 64]
00000000: af52 863c 3a06 04be 1eaf a0bc 45d8 7ebd
00000010: 2ea4 3e3c 6e46 5dbd 3efa a4bc 8763 debb
00000020: 89c0 1cbd ec83 af3d 49b1 8fbd 7987 7bbc
00000030: 7c29 7c3d 3c34 2fbe d53e 01bc 88b8 edbc
00000040: 9d1f d8bc 1cea 99bd 62e4 c83c 65e0 f0bc
00000050: beb5 a7bd 7757 843d e0b0 e4bc a0d5 ddba
00000060: 2be6 043d 1867 adbd a48d f1bc 76df da3c
00000070: ceba 0cbd d340 37bd bce9 a53d cb10 95bd
00000080: deb5 80bd e88d 163b 5f27 88bc 1a78 a23d
00000090: 8edd 533c d041 5abc f086 ecbc 153e 1fbd
000000a0: a562 bb3d 9a3f 383d 8f1e 313d cbeb 413d
000000b0: 919d 0f3d 9b55 19bd 467f e8bd e110 9b3c
000000c0: 5b50 0b3d 14a9 2ebd 1e00 b23c 95cf 11bd
000000d0: 0c4f f03d 2cf0 cfbd 8950 183d fcd8 263d
000000e0: b768 b73c 692d 013d 1822 7abd 4be3 3a3d
000000f0: 29ce cf3d 6593 623d ec59 d7b9 15c0 fa3c
00000100: e915 b5bd 817a 3dbe 065f 50be 1613 a7be
00000110: 09d5 a6bd 77f1 bdbd 419b c0bd e3c3 bdbd
00000120: df35 83bd ab31 81bd 211e 1f3e 292e 3cbd
00000130: 11aa 61bd ae80 70be ec38 30bd 0b18 193e
00000140: 7f1e bd3d 927c 5f3e 61b6 17bd cf30 56bc
00000150: b2c6 8abe ed59 de3c fb92 5ebe d8f6 71be
00000160: 8dfa 52be 4641 e2bc 1a75 07bf 2833 57be
00000170: a3b0 143e f7b3 45be 3222 59bd 4a22 babd
00000180: 331e 85be 117d 00be 8856 833d 6fff 6abd
00000190: 2356 fd3c 02c5 efbd f46f a2bd 5eda 7ebe
000001a0: 4dc6 04be b478 bc3d 185e e3bc b0fc fcbb
000001b0: 4ab5 a73d 1571 8c3d 8609 3a3e 126f 1ebe
000001c0: cd1d bdbd bac6 29bd 5705 33be ca15 f4be
000001d0: f4f2 e3bd 8cfe 90bd 1790 e8bd 3f35 ab3d
000001e0: b247 92bd da2c a63d 15d8 ddbc 4edf 3b3d
000001f0: 94b1 febc d178 9d3c 93e0 be3d 356d 64be
00000200: 7e0b 2dbc 0832 25bd b16d fcbb 1157 90be
00000210: c07d df3d 3451 433d 0bb9 b43e 5f6f ab3e
00000220: 40df aa3e c0d4 14be 507f 90bd 9e7a a5be
00000230: d05e c63d 3712 ae3e f6b6 93be 82eb 973d
00000240: 2283 cf3d b248 003e 1ecd 96bd 1d15 0a3e
00000250: 9d7d 803e e198 e4be 1ade 96be 7c6e cbbd
00000260: c39e 5fbe ef31 843d 1bb2 4e3f cbba b5bd
00000270: 03d6 01bc 7510 773d c165 f53b 47e7 90be
00000280: 254b 0a3c c1b5 463d 669b c8be 5432 4e3d
00000290: 06e9 a23e 7177 f7be d53b e7be df45 86be
000002a0: 0e82 093e 5ddc 163e 8fcd 283e 60ae d83e
000002b0: a1b0 56be 8518 d7be 72f9 ba3d 1811 a03e
000002c0: d8ab 58be 5754 f43d 5759 813d ef71 45be
000002d0: 4ca6 98bd 784a cfbd f627 193d 4479 e93d
000002e0: 40a5 f8bc 26bc e53d 2258 4abe 9231 883e
000002f0: 60d9 6c3e a786 283e 7088 2bbd 8ae9 743e
00000300: 49db 443d 1b60 76be e1f5 1abe 0b55 7abe
00000310: 1573 a4bc 3b37 d33b 6081 a2bd 29d7 0d3d
00000320: 0815 a9bd 8322 8bbd 643e db3d 819c d2bd
00000330: c131 1abe 555e a7bc 9b49 78bc c15c 84bd
00000340: 8ef6 babd 6734 86bd fbdf 12bd a658 b13d
00000350: beaa bcbe 454b 26be d68c 68be 136a 433d
00000360: fc87 e13c 8959 b3bd 4afd 88be de2a 99be
00000370: 2c92 1f3e 3d09 86bd 495b b4be 4fbd 23be
00000380: 08f1 08bf a61b 133e ea42 1d3e 75c6 64bd
00000390: 25e1 58be 6ee6 42be 5ab2 ae3d 10ff b4bd
000003a0: 8bb3 30bb 4660 2fbe 5ecb 30bd edda 52bd
000003b0: 7654 723d 889b 353c c0fe 2e3d 8fcf d23d
000003c0: f0dc 3cbe 8b2e 0f3e dfa1 eabd f5fe 41bd
000003d0: fb6b afbe b0d2 2bbd e8e2 f13d 294a 72bd
000003e0: 67da cdbd 5287 2dbd 3a6f 34bd e848 4bbd
000003f0: 6d27 d1bd 9397 9e3d 4f4f 91bc c55c 893d
0.016396848 -0.12893 -0.019614752 -0.06221797 0.011635823 -0.054022245 -0.020138856 -0.006786767
-0.038269553 0.08570084 -0.07016236 -0.015352123 0.061563 -0.1710977 -0.0078885155 -0.029018655
-0.026382262 -0.07515356 0.024522964 -0.029403875 -0.081889614 0.06461995 -0.027916372 -0.0016924627
0.032446068 -0.08466929 -0.029486485 0.026717883 -0.03435784 -0.044739556 0.08101222 -0.07278594
-0.062846884 0.0022972766 -0.016620336 0.07933064 0.012931241 -0.013321355 -0.028872937 -0.038877565
0.09149674 0.04498253 0.043242034 0.04734401 0.035062376 -0.037435155 -0.113524005 0.018928947
0.03401218 -0.042641714 0.021728572 -0.035598356 0.11733827 -0.10153231 0.03718618 0.040734276
0.0223888 0.031537447 -0.06106767 0.04562692 0.10146744 0.055316348 -0.00041074993 0.03060917
-0.0884207 -0.18503763 -0.20348749 -0.3263175 -0.08146102 -0.092745714 -0.09404612 -0.09265878
-0.064067595 -0.063083015 0.15538837 -0.04594246 -0.05509383 -0.23486587 -0.043023035 0.14950578
0.09234332 0.21824864 -0.037039164 -0.01307316 -0.27104717 0.02714249 -0.21735756 -0.2362932
-0.2060339 -0.027619015 -0.5291306 -0.21015608 0.14520507 -0.19306932 -0.053011127 -0.09088571
-0.25999603 -0.12547709 0.06412989 -0.057372507 0.030924862 -0.11707498 -0.079315096 -0.24887988
-0.1296627 0.0920271 -0.027754828 -0.0077205524 0.08188875 0.06857506 0.18167695 -0.15472057
-0.092342 -0.041449286 -0.17482506 -0.47672874 -0.11130324 -0.07079801 -0.11355608 0.08359765
-0.07142581 0.081140235 -0.027080575 0.045867257 -0.031090535 0.019222649 0.09320178 -0.22307284
-0.010561822 -0.040330917 -0.007703506 -0.28191426 0.10912657 0.047684863 0.35297427 0.33483407
0.3337345 -0.14534283 -0.07055533 -0.32320112 0.09686053 0.33998272 -0.28850526 0.074179664
0.101324335 0.12527731 -0.07363342 0.13484617 0.25095835 -0.44647887 -0.29466325 -0.099331826
-0.21837907 0.064548366 0.8074052 -0.088735186 -0.0079245595 0.06031843 0.0074889367 -0.2830145
0.008440767 0.048513178 -0.3918106 0.050340965 0.31818408 -0.48333314 -0.45162836 -0.26225182
0.13428518 0.147325 0.16484664 0.42320538 -0.20965816 -0.42010894 0.09129609 0.31263041
-0.21159303 0.11930149 0.06315868 -0.19281743 -0.074535936 -0.10121626 0.037391625 0.11400083
-0.030352235 0.11217527 -0.19760182 0.2660032 0.23129797 0.16457616 -0.041878164 0.23917213
0.04806069 -0.24060099 -0.15132858 -0.24446504 -0.020074407 0.006445793 -0.079348326 0.03462902
-0.082559645 -0.06793692 0.107052594 -0.10283757 -0.15058042 -0.020430723 -0.015154268 -0.06463004
-0.09129058 -0.06552964 -0.035858136 0.086594865 -0.36849016 -0.1623965 -0.22709975 0.047708582
0.027530663 -0.08757312 -0.26755744 -0.29915518 0.15583104 -0.06544731 -0.35225895 -0.15990184
-0.53492785 0.14366016 0.15357557 -0.055853326 -0.21179636 -0.19033214 0.085301116 -0.08837712
-0.0026962485 -0.17126569 -0.043162696 -0.051478315 0.05916258 0.011084445 0.042723417 0.10293495
-0.18443656 0.13982598 -0.11456656 -0.047362287 -0.3426207 -0.041948974 0.11810857 -0.059152756
-0.100514226 -0.04236538 -0.044051386 -0.049630076 -0.10212598 0.07743754 -0.017738013 0.067071475

net_container.2.bias f4 [64]
00000000: 0771 823c e03a 19be ff72 a1be 25d9 b7bd
00000010: 9d25 c6bc ec80 85bd b537 89be cdb4 86be
00000020: cea6 2fbd 9b39 b5be da9d 8f3c 6a73 babc
00000030: 7ac6 fc3c 0703 78bc 7a2d 87bc 9374 5f3c
00000040: 858c 1fbe 3f27 c23c 4583 40bb 6e77 e1bb
00000050: a908 dd3c da32 7bbe f9ab 25bf 5bf6 b23c
00000060: 4ebe acbe 0567 90be 1316 4abc 7a1a d13c
00000070: 7619 56bd 2786 bcbe 3cb3 b13c 6406 4ebc
00000080: 0ce1 28bd ea28 68be f6ef c5bc 5a2e 9ebc
00000090: 8db8 d0bb 62a6 16bd 4e7e 2fbc 721e 12bd
000000a0: eab5 fabc de75 20be ea8a 2cbd 0a70 803c
000000b0: d94e 26bc 0fa6 a63c bf7d 013d 5923 6cbe
000000c0: ea0f 443c c69c c1be b35c f33c 5d4e 20bd
000000d0: e6cf c4bc b2d6 91bd b717 f7bb 5487 f4bd
000000e0: 37b6 293d 2bc0 6dbd 40cd 5e3c 5fbd 6b3c
000000f0: b863 89be 93aa 2dba 8526 453c 39fe 1d3c
0.015923036 -0.14963865 -0.31533048 -0.08976964 -0.024187857 -0.065187305 -0.26800314 -0.26309815
-0.042883687 -0.35395512 0.017531324 -0.022760112 0.03085636 -0.0151374405 -0.016501177 0.013638633
-0.15580948 0.023700355 -0.0029375118 -0.006880692 0.026981669 -0.24531117 -0.64715534 0.021845987
-0.3373894 -0.28203598 -0.0123343645 0.02552532 -0.052270375 -0.368211 0.02169191 -0.012574766
-0.041230246 -0.22671857 -0.024162274 -0.019309212 -0.0063696564 -0.03677977 -0.010711266 -0.035673566
-0.030604322 -0.15669963 -0.042124666 0.015678424 -0.010150635 0.020342855 0.03161406 -0.23060359
0.011966685 -0.3781492 0.029707288 -0.039137233 -0.024024915 -0.07121028 -0.007540669 -0.11939874
0.04143354 -0.058044594 0.01359874 0.014388411 -0.26833892 -0.0006624844 0.01203311 0.009643131

policy_layer.weight f4 [4, 64]
00000000: 682b cc3b 1622 4bbb be39 86bd 9741 49bc
00000010: 8c04 3abb 6286 923b 4a40 133b 1a8f 69bb
00000020: 642b 6dbb 1416 473d 0476 8cbc 9ca8 19bb
00000030: 77be d0ba 82a1 5abc 7a3a c43b 10c3 99bb
00000040: 2c84 3f3c 5a6c c2ba 0d74 9f39 415f 04bb
00000050: 5b77 533b 692e 0dbd e81c c93c 52e3 88ba
00000060: f882 7f3d 6996 4abc 061a 57bb 4be1 c6bb
00000070: 5565 3e3a 8fa2 a43b 7d69 0fbc 330a 893b
00000080: 5af8 99ba 5706 cb3c d1e6 71bb 3e2c 113c
00000090: e8a4 283b be10 483b c4a8 53bc aef7 81bb
000000a0: 7a75 cbbd dd6a fb3c aaaf 533a 353e 96ba
000000b0: 2435 b7bb ed28 51bb 29c2 c8ba 0d47 983c
000000c0: 2d56 693b c2f6 6a3d f2a9 163c 8351 943b
000000d0: 5858 4bbb 8afe 143b 898f 103b 049b 5dbc
000000e0: 86a2 6b3b 6cb3 f1bb cce4 123b 2d2c 02ba
000000f0: 45a7 4a3b eb5b 66bb dce6 673a 5d2f 323b
00000100: a9fb 79bb c35a a93d ce9d 813d 6414 e53c
00000110: fef5 d3ba 93f7 0bbb 996c 35bd c194 9cbd
00000120: cba6 88bb 8fc2 2c3d ccaa 81bd d163 15bc
00000130: ce58 fcbc 306c 94bd b565 943b fb30 4a3b
00000140: 9876 14bc 71e4 363a 6c6d 8fbc e1fe 873c
00000150: 9c03 7b3b 83c4 e83d b798 39bd f62a 5e3c
00000160: eb8d 18bd b156 3dbd 04d4 31bc 00bd b4bc
00000170: d891 893b 35b5 da3c 32dd 2fbc 3778 2d3c
00000180: 790d 413c 7adb 193c 336d 71bb 648e 813c
00000190: d710 02bb e57e bb3b 2410 babb 1466 ac3a
000001a0: 6ea3 05bb 814a 6ebd a943 ae3b 04f2 22bc
000001b0: 210b 26bc 75b5 053c 2a84 803a 8881 2d3b
000001c0: d79d cc3c c84d 843c 3c00 813c 0b96 943a
000001d0: 31fd ec39 91e0 7dba 00dc 35bc ee27 62bd
000001e0: 044a 30bb e99c 52bc 2601 8b3b bf30 383b
000001f0: 6ed3 903d 4975 f4bb 3d57 be3b 7a67 8abb
00000200: 901a f7b9 48b0 543d a68d 4ebc 0f50 c5bb
00000210: 5c0d debb c420 3ebc 00fc 9ebd 6987 2cbc
00000220: 2937 72ba 6114 debd ddde 163e e99b 033c
00000230: afd2 29bc 2808 133d 2d7a 683b 43a0 f8bb
00000240: 1bf4 153c e120 23bb b1bf bf3c fe02 4ebc
00000250: fd19 80bb a0ec d33c fb07 e7bc 26a4 91bb
00000260: cbeb ce3d 651f 783c 246f 683b fa33 863c
00000270: 02fc 3e3b 0523 6fbd 5950 7a3b 00c0 19bc
00000280: a545 22bb c468 5a3d c83c 00bc 5d15 ccbb
00000290: 2b8f a6bb c94c 97bb a1f4 68bc 6206 873b
000002a0: 66e9 d63d b41d 91bc f624 4ebb 0d77 edbb
000002b0: ada8 07bb 560c fc3a cd38 3cbb 7e29 863d
000002c0: d1be 573b a143 d2bd 085f 5b3c e4b0 043c
000002d0: 8036 1dba 6d7f 453c e762 5a37 29c4 3bbe
000002e0: 7804 0c3c 0425 27bc 9c2b fbbb fb95 fbb8
000002f0: ae3d 9b3d 974b 65bc 3f38 b43a 7028 d73a
00000300: 6fca 4bbb 4316 0dbd ca2c 433d 8f59 97bc
00000310: d2ea 153c 1d84 8fbb ca99 13bc 03a4 9c3d
00000320: ea57 c3bb b691 acbc 6865 f0bc 0b4c 4639
00000330: 5ddb b13b a80b ddbb 8f9e 3b3b 050e 67bc
00000340: 5bc2 bb3c 13c2 823c bf21 2339 c35f ab3c
00000350: 25b0 363c c65e 423d 0c24 2f3b d415 9d3b
00000360: f4f1 f33c 0387 f53b 7d77 bab7 3b54 6fbb
00000370: 5f4b 333b b906 2fbd c824 83bb a6ac 8f3c
00000380: 6b96 f1bb c9e9 e4bd efaa 0fbb 4aac 95bb
00000390: b899 ac3b 85ab 9f3b a743 293c 431a 553c
000003a0: 7e54 183c c0c0 783d f998 3b3b 9495 f43b
000003b0: 91ab 5b3c 9694 173c 3529 ac3b 502c 7d3d
000003c0: 26ca e3bc 3f3a 383d f7fa 1e3c e83d 113c
000003d0: f73d 5f3b e041 b6bb 8666 873b 6c21 8cbc
000003e0: 3a7f 513b 8643 8f3a 543b 3a3c 5cc8 b83b
000003f0: 500c cb3b bcd6 2d3c 3f9e cd3b eb0a 9ebb
0.0062307604 -0.0030995659 -0.06553982 -0.012283704 -0.0028384058 0.004471586 0.002246874 -0.0035638274
-0.0036189193 0.04860504 -0.017146118 -0.0023446446 -0.0015925904 -0.0133441705 0.0059884163 -0.0046924427
0.011689227 -0.0014833317 0.00030413308 -0.0020198377 0.0032267186 -0.03446809 0.024549916 -0.0010443723
0.06238076 -0.012364962 -0.0032821908 -0.0060693375 0.00072630245 0.0050242613 -0.008753178 0.004182124
-0.0011746988 0.024783297 -0.003691126 0.008860646 0.0025733057 0.0030527557 -0.012918655 -0.0039662933
-0.09934516 0.030690605 0.0008075187 -0.0011462631 -0.0055910517 -0.0031915263 -0.0015316653 0.018588567
0.0035604343 0.057364233 0.009195792 0.0045263185 -0.0031027999 0.0022734725 0.002205821 -0.013525728
0.0035955026 -0.007376125 0.0022414206 -0.0004965689 0.0030922454 -0.0035150002 0.00088463514 0.0027188875
-0.0038144386 0.082692645 0.06328927 0.027963825 -0.0016171334 -0.0021357283 -0.04429302 -0.0764556
-0.004170274 0.042177733 -0.06331405 -0.009118036 -0.030804064 -0.07247198 0.004528726 0.0030851949
-0.009061478 0.00069767894 -0.017508231 0.016601028 0.0038301712 0.11365607 -0.045311656 0.013560047
-0.03724472 -0.046225253 -0.010853771 -0.022062778 0.004198294 0.026697734 -0.010733889 0.0105877435
0.011782997 0.009390706 -0.003683877 0.015814967 -0.0019846463 0.005721914 -0.0056781936 0.001315298
-0.00203916 -0.05817652 0.0053181243 -0.009945396 -0.010134489 0.0081609385 0.0009805013 0.0026474912
0.024977608 0.01615037 0.015747182 0.001133622 0.0004520207 -0.0009684647 -0.011099815 -0.05521386
-0.0026899586 -0.012854793 0.0042420803 0.0028105227 0.07071577 -0.0074602705 0.0058087395 -0.004223761
-0.00047131302 0.051925927 -0.012607014 -0.0060215066 -0.006776495 -0.011604492 -0.07762909 -0.010530331
-0.0009239787 -0.10843731 0.14733453 0.008032777 -0.010365172 0.03589645 0.0035473213 -0.007587464
0.009152438 -0.0024891424 0.023406835 -0.012573956 -0.003909348 0.025869668 -0.028202048 -0.004444617
0.10103568 0.015144204 0.0035466636 0.016382206 0.0029141908 -0.058383007 0.0038194864 -0.009384155
-0.002476075 0.05332257 -0.007826991 -0.0062281326 -0.005082985 -0.004617308 -0.01421848 0.004120634
0.10493736 -0.017714359 -0.0031455136 -0.007246858 -0.0020699904 0.0019229751 -0.002872038 0.06550883
0.0032920132 -0.102668054 0.013389356 0.008098815 -0.0005997196 0.012054306 1.301684e-05 -0.18336548
0.008545987 -0.010201696 -0.0076651108 -0.00011996549 0.07580124 -0.013995073 0.0013749673 0.001641525
-0.0031096002 -0.03444506 0.047650136 -0.018475322 0.009150224 -0.004379763 -0.009008834 0.0764847
-0.005961408 -0.021065574 -0.02934523 0.0001891108 0.0054277615 -0.0067457743 0.0028628444 -0.014102464
0.022919824 0.015961682 0.00015557463 0.020919686 0.011150395 0.047453664 0.0026724366 0.004793862
0.029778458 0.0074929013 -2.2228569e-05 -0.003651871 0.0027358157 -0.04273102 -0.0040021874 0.01753838
-0.0073726675 -0.111774035 -0.0021921953 -0.0045676576 0.005267348 0.0048727416 0.010331071 0.01300675
0.009297488 0.060730696 0.0028625114 0.00746412 0.013407604 0.009251734 0.0052539357 0.061809838
-0.027806353 0.044977423 0.009703389 0.008864857 0.0034064034 -0.005562052 0.004132095 -0.01710578
0.0031966702 0.0010930158 0.011366684 0.005639119 0.006196536 0.010610279 0.006274968 -0.004823079

policy_layer.bias f4 [4]
00000000: a2fe 34bf 7607 113c d327 9abc 5eac d33a
-0.7070104 0.0088518765 -0.018817818 0.0016149392

value_layer.weight f4 [1, 64]
00000000: 9e0d 33bc 8257 1dbb 05a7 18bc 1d76 8e3d
00000010: 42ec 683b 1d67 5ebb 44c3 bebc 3d9b d3bd
00000020: 8061 ffba 314e cbbc 536e b4bc 24f7 f3bb
00000030: 774f 043d da6a b33d d985 23bc 8747 ec3b
00000040: 30c8 153d 88a8 51bc b339 abbc 9d12 733b
00000050: 5e2e b73a 23fc 6fbc 2db4 93be b3ae c03b
00000060: 38a6 edbc 5825 f7bd c4e3 b4bb 28e0 5c3d
00000070: c64f 893b 2480 2cbe 2306 5dbb 1902 2b3b
00000080: 9109 453b cadb 283c d58f cd3b 5e02 043b
00000090: 99d7 66bb 3c2d 9eba 4ecd f73b 24df 953b
000000a0: 13b4 4b3d b215 473d cb56 0b3c cba9 a4b8
000000b0: 07bb 21bb f639 9aba f9c3 1c3c 5fb6 e5bc
000000c0: 8519 243b c0f6 203d c06e 41bb f535 49bc
000000d0: 4a4b 8c38 44e4 ddbc f4b5 72bc 75c7 85bc
000000e0: 7c49 d53c 693f 1a3c 4182 6cbb 4b21 ceba
000000f0: 42fa fb3c cf5b 1c3c 504f e0ba 5be3 d83b
-0.01092854 -0.0024008458 -0.009317164 0.06956122 0.0035541211 -0.0033935972 -0.02328647 -0.10332344
-0.0019484013 -0.024817558 -0.022025263 -0.007445233 0.032302346 0.08760615 -0.009980642 0.007210675
0.036567867 -0.012796529 -0.020901537 0.0037089952 0.001397561 -0.014647516 -0.288484 0.005880201
-0.029009923 -0.1206767 -0.005520316 0.05392471 0.004190418 -0.16845757 -0.0033725582 0.002609378
0.0030065516 0.010306308 0.0062732496 0.0020143013 -0.003522372 -0.0012067924 0.007562316 0.0045737196
0.04973228 0.048604675 0.00850458 -7.851756e-05 -0.0024678127 -0.0011766541 0.009568208 -0.028041063
0.0025039625 0.03929782 -0.0029515475 -0.012280931 6.689744e-05 -0.027086385 -0.014813889 -0.01633046
0.026036017 0.009414532 -0.003608838 -0.0015726475 0.03075898 0.009543373 -0.0017113481 0.0066188998

log_std_parameter f4 [4]
00000000: 3f6c 07c0 63a2 c8bf 2899 b2bf e2d8 c8bf
-2.1159818 -1.5674556 -1.395299 -1.5691187

net_container.0.weight f4 [64, 19]
00000000: 293b 69be 2599 683e fae8 a8be e4a9 1d3d
00000010: af7f 5a3e 0d61 433d b32e 1e3f d7d9 073e
00000020: 32f8 8bbe 4343 eebd 6082 76bc ca3c be3e
00000030: ac61 81bd a56a 973c d7e5 623e c673 b5bd
00000040: 22ce 4bbe 28ff 3bbd a84a 833e bdda 09bd
00000050: 5472 b73e 0ece dbbe 17c7 3b3e 8a48 733d
00000060: f11e 4abe e08d 253f a8cb b9be a578 b6be
00000070: 8368 ecbd 0fa0 1e3c 61cc 18bf 3941 283e
00000080: 8828 7fbd 94a6 043f 60d9 27bd a798 353d
00000090: 2b11 ffbd 2b0a 0abe ef2e fa3e eabb 9e3e
000000a0: e039 473f eec1 b13d e8ca 97bd 04bd 513e
000000b0: 1ea0 093e 8790 97be 6af7 7ebe 9125 f1bd
000000c0: 1d97 1ac0 d5e1 b3bd baab 01bf 2af4 1fbe
000000d0: 5090 2a3e 7b14 7dbd 4a83 cbbd b58e 8dbd
000000e0: 3af7 6d3d fe94 babe 5369 1abf d138 813d
000000f0: d0e8 84be 5c21 b7bd 4d41 acbd 4982 8b3c
00000100: 3a60 06bd ad82 99be 3479 473e 3af7 dfbc
00000110: 272f c8be 265c e63e cfcd db3d a9f3 c83d
00000120: c81d ba3d 3ac1 5e3c 9b7d 61bb 48f1 aebd
00000130: 93e9 a53e 73c5 bcbd 451d 453f f05a 8ebc
00000140: 671f 203a 774f 62bd 9709 3bbe 4eaf ab3d
00000150: a02e 463e 13c3 b53d e26a 06bf 5557 bebe
00000160: b786 f4be 7f83 8bbd f3e3 c2bd ecb4 0cbd
00000170: 2594 2f3e 5c23 643c e303 82bd adbb eebd
00000180: 70e8 223d ee90 1a3f 50bf be3d 14a1 4c3d
00000190: bb7d 47bc 1ee6 7c3d 6547 85bd 78cd 80bd
000001a0: 43c8 8a3d 874c 0c3e 3462 0f3e 9480 453e
000001b0: e944 413e 4988 763c 674a 07bd 428f 16be
000001c0: 73ae e73d 5f0d c5bd 3750 373f b987 473f
000001d0: 6530 073f b4b3 893d 82e0 e23d c070 24be
000001e0: abc2 cebd 6f54 c6bd 471f 283f 16c7 433c
000001f0: 2071 85bf 3055 70bf c561 093e 129e 08be
00000200: 7bfb a43d 2f64 9abe 7cd9 8d3d e4fc 803d
00000210: 4b90 713e 46b3 963e 0b1a 82be 6856 c43e
00000220: dc96 5d3e 26ff 4c3d 90f8 15be e4be 3ebe
00000230: a2ec 083e 7243 943e 49bf 92ba 4768 17bf
00000240: 2d72 443e ed2d 1cbf 2060 ab3e 5fac fb3c
00000250: 8513 6fbd bd61 d6bc 824c 713d 0323 5f3d
00000260: 21f5 fa3e 972a 50bf ebbc 6c3e 8fb6 c23d
00000270: ccd7 b73d 723d 68be b79f 62bb 264e 3e3a
00000280: c478 043e f702 7f3d 3639 06bf cbb6 a2bd
00000290: edad 74bd febe c73d de3f 1fbd 40d4 8d3d
000002a0: 8a6c 69be 5afb 9b3d 9f57 debd f7ec 8c3c
000002b0: eb5f 5abd f49c 5fbe fc47 863d da9d cebc
000002c0: 29cc 99bd d3ad 783e 7177 d33d 3f36 143c
000002d0: 26ad 38bd 7df0 053f a4ce 023e 28ea c23e
000002e0: 7573 823d 80da 97be 56b5 27bd 1bdc 9dbd
000002f0: 9f85 143d 7b19 6e3d 33eb 603d ee41 96be
00000300: 8af9 a23e 27bc 3e3e 881a 3bbe e52c 1bbe
00000310: 2ddd 303f 3850 2e3b c300 1dbe 0b8e 32be
00000320: 3bec 4dbd 0dc2 a6be 1bad 2abe 8336 ddbd
00000330: 16bc 0b3e ba35 61bd 6473 84bc 643a dc3d
00000340: bd5f acbc 379d 5d3e 0d55 d5be 1221 59bf
00000350: 2c63 4abc 980a 06be a958 adbd 0665 a93d
00000360: 4523 063e df55 233e b344 f0bc 472e 613b
00000370: aec1 783d f048 ef3e ad47 583e be16 b83d
00000380: 9dfc 94bd 4343 90bc d9a6 903d 7328 193b
00000390: 4f9e 033e 4740 223d 1ed4 233f c713 56bd
000003a0: 679d abba 8d07 d1bd 36be fbbd 9256 89be
000003b0: d806 0dbe feab 453d 2548 c4be f893 0abf
000003c0: 0c13 a6be a001 aebd d4af d5bd c50f 483d
000003d0: cdd8 fd3d 50df ba3d e2df fbbd a849 e1bd
000003e0: 1e99 71be f53c 8a3e ab1e 173f f7e6 483e
000003f0: 2cef 22bd ed7a 2dbe 13c8 9e3d a962 a83d
-0.22776474 0.2271467 -0.32990247 0.0384921 0.2133777 0.047699977 0.6179001 0.13266693
-0.27337795 -0.11633923 -0.015045732 0.37155753 -0.063174576 0.01848347 0.2215799 -0.08859973
-0.19902852 -0.045897633 0.25642896 -0.03365587 0.35829413 -0.42930645 0.18337665 0.05939535
-0.19738366 0.6466961 -0.3628819 -0.3563892 -0.115433715 0.009681716 -0.5968686 0.1643113
-0.062294513 0.5181668 -0.04097879 0.044335034 -0.124544464 -0.13480441 0.48863932 0.31002742
0.77822685 0.08679567 -0.07411748 0.2048226 0.13439986 -0.29602453 -0.24899068 -0.11774743
-2.4154732 -0.087833084 -0.5065266 -0.15620485 0.16656613 -0.06178711 -0.09937151 -0.06911985
0.0580971 -0.36441797 -0.6031696 0.06309665 -0.25958872 -0.0894191 -0.08410893 0.017029898
-0.032806613 -0.2998251 0.19479829 -0.027339566 -0.39098474 0.4499218 0.10732614 0.098120995
0.090877116 0.0135958735 -0.0034407142 -0.085421145 0.32404765 -0.09217348 0.76997787 -0.017377347
0.0006108195 -0.055251565 -0.18265377 0.08383046 0.19353724 0.08875098 -0.5250684 -0.37176004
-0.4775903 -0.0681219 -0.09516134 -0.034352228 0.17146356 0.013924446 -0.063483976 -0.1165689
0.03977245 0.60377395 0.09313834 0.049958304 -0.012175973 0.061742894 -0.06507758 -0.0628919
0.06776478 0.13701068 0.14002305 0.1928733 0.18873943 0.015047141 -0.03302994 -0.14703086
0.113125704 -0.09621691 0.71606773 0.7794147 0.5280822 0.06723729 0.11077978 -0.16058636
-0.10095724 -0.09684073 0.65672725 0.011949321 -1.0425148 -0.93879986 0.13416202 -0.13341549
0.080557786 -0.3015456 0.069262475 0.06298235 0.235902 0.2943365 -0.25410494 0.38347173
0.2163958 0.050048016 -0.146456 -0.18627506 0.13371518 0.28957707 -0.0011195923 -0.5914349
0.1918418 -0.6100758 0.33471775 0.030721841 -0.058368225 -0.026169652 0.058910854 0.05447675
0.49015144 -0.81314987 0.23118941 0.095074765 0.08976707 -0.2267969 -0.003458006 0.000725957
0.12936693 0.062258687 -0.52431047 -0.07945021 -0.05973618 0.09753226 -0.038879268 0.06925249
-0.2279531 0.07616301 -0.10856556 0.017202837 -0.05331413 -0.21837217 0.06556699 -0.025221754
-0.075096436 0.24285059 0.10325516 0.009046136 -0.045087002 0.5232008 0.1277414 0.38069272
0.06369678 -0.2965889 -0.04094442 -0.077079974 0.036260244 0.05812977 0.054911803 -0.29347175
0.31831008 0.18626462 -0.1827184 -0.15153845 0.6908749 0.0026598107 -0.15332322 -0.17436998
-0.050274115 -0.32569924 -0.16667597 -0.10801413 0.13645968 -0.05498288 -0.016168304 0.10753325
-0.021041745 0.21642004 -0.4166645 -0.84816086 -0.012352746 -0.13089979 -0.08464176 0.08271222
0.13099392 0.15950726 -0.029329633 0.003435986 0.060731582 0.46735334 0.21121092 0.08988713
-0.07274745 -0.017610198 0.07063074 0.0023370057 0.12853359 0.03961208 0.6399554 -0.052264955
-0.0013093174 -0.10206518 -0.12292139 -0.2682386 -0.13772142 0.048259728 -0.38336292 -0.5413203
-0.32436407 -0.08496404 -0.10433927 0.048843164 0.12394867 0.09124625 -0.12298562 -0.11000377
-0.23593566 0.26999632 0.5903117 0.19619356 -0.039778873 -0.16941424 0.07753005 0.08221943

net_container.0.bias f4 [64]
00000000: 4a60 77be ffb3 7fbe 435b 44be 37a0 a4b9
00000010: 19d1 37bc 421f f53d 27aa 4d3c 77cc 84bd
00000020: 8788 a23c 3120 113e 6808 89bd 0ec0 42bd
00000030: 9342 de3c bff6 34be 51b8 cb3d 96bd 88bd
00000040: 63cb 2dbe ac75 0abe 278d 1c3d d81c 6dbe
00000050: 1d5d ce3d 81bd 73bb b737 0abe 6c9f 09be
00000060: f3d9 50be e111 80bd 3f99 94be a7bd f8bd
00000070: 7eac 5bbe e811 04be ff49 03be e6fb 2fbe
00000080: 7279 57bb d8e9 7cbe 21f5 ae3d 70f1 d33a
00000090: 0f4e 16be b5ea d3bd 8fe4 0f3e d84f a1be
000000a0: c7eb 8ebe bb5d 2ebd 14cf 5abe 7979 ccbd
000000b0: e44c 973c b594 7dbe f6bd 81bd ef7e 9dbe
000000c0: 8b6d 9d3d c799 c8be eae9 88be 213c 61be
000000d0: c1a4 95bd 18f6 573d 9585 59be 5a44 92be
000000e0: 075a d5bb 340d 4bbe 3248 973d 5d39 51bd
000000f0: 0212 acbe 1f74 d83d a44b 9b3d e756 f0bd
-0.24157825 -0.24971007 -0.19175439 -0.00031399887 -0.011219286 0.119688526 0.0125527745 -0.06484311
0.019840492 0.14172436 -0.066910565 -0.04754644 0.027131354 -0.17672251 0.09947265 -0.06676786
-0.16972117 -0.13521451 0.03822055 -0.23155534 0.10076354 -0.003719181 -0.13497816 -0.13439721
-0.20395641 -0.0625341 -0.29023167 -0.12145548 -0.2145252 -0.12897456 -0.12821196 -0.17185935
-0.0032878784 -0.2469858 0.085428484 0.0016169976 -0.14678214 -0.10347501 0.14052032 -0.31506228
-0.2791426 -0.042569857 -0.21368057 -0.099841066 0.018469281 -0.24763758 -0.0633506 -0.30760905
0.07686909 -0.39179823 -0.26740962 -0.21995594 -0.07306815 0.052724928 -0.21242364 -0.28567773
-0.0065109762 -0.19829255 0.07386817 -0.051080097 -0.3360749 0.10569023 0.07582787 -0.11735325

net_container.2.weight f4 [64, 64]
00000000: af52 863c 3a06 04be 1eaf a0bc 45d8 7ebd
00000010: 2ea4 3e3c 6e46 5dbd 3efa a4bc 8763 debb
00000020: 89c0 1cbd ec83 af3d 49b1 8fbd 7987 7bbc
00000030: 7c29 7c3d 3c34 2fbe d53e 01bc 88b8 edbc
00000040: 9d1f d8bc 1cea 99bd 62e4 c83c 65e0 f0bc
00000050: beb5 a7bd 7757 843d e0b0 e4bc a0d5 ddba
00000060: 2be6 043d 1867 adbd a48d f1bc 76df da3c
00000070: ceba 0cbd d340 37bd bce9 a53d cb10 95bd
00000080: deb5 80bd e88d 163b 5f27 88bc 1a78 a23d
00000090: 8edd 533c d041 5abc f086 ecbc 153e 1fbd
000000a0: a562 bb3d 9a3f 383d 8f1e 313d cbeb 413d
000000b0: 919d 0f3d 9b55 19bd 467f e8bd e110 9b3c
000000c0: 5b50 0b3d 14a9 2ebd 1e00 b23c 95cf 11bd
000000d0: 0c4f f03d 2cf0 cfbd 8950 183d fcd8 263d
000000e0: b768 b73c 692d 013d 1822 7abd 4be3 3a3d
000000f0: 29ce cf3d 6593 623d ec59 d7b9 15c0 fa3c
00000100: e915 b5bd 817a 3dbe 065f 50be 1613 a7be
00000110: 09d5 a6bd 77f1 bdbd 419b c0bd e3c3 bdbd
00000120: df35 83bd ab31 81bd 211e 1f3e 292e 3cbd
00000130: 11aa 61bd ae80 70be ec38 30bd 0b18 193e
00000140: 7f1e bd3d 927c 5f3e 61b6 17bd cf30 56bc
00000150: b2c6 8abe ed59 de3c fb92 5ebe d8f6 71be
00000160: 8dfa 52be 4641 e2bc 1a75 07bf 2833 57be
00000170: a3b0 143e f7b3 45be 3222 59bd 4a22 babd
00000180: 331e 85be 117d 00be 8856 833d 6fff 6abd
00000190: 2356 fd3c 02c5 efbd f46f a2bd 5eda 7ebe
000001a0: 4dc6 04be b478 bc3d 185e e3bc b0fc fcbb
000001b0: 4ab5 a73d 1571 8c3d 8609 3a3e 126f 1ebe
000001c0: cd1d bdbd bac6 29bd 5705 33be ca15 f4be
000001d0: f4f2 e3bd 8cfe 90bd 1790 e8bd 3f35 ab3d
000001e0: b247 92bd da2c a63d 15d8 ddbc 4edf 3b3d
000001f0: 94b1 febc d178 9d3c 93e0 be3d 356d 64be
00000200: 7e0b 2dbc 0832 25bd b16d fcbb 1157 90be
00000210: c07d df3d 3451 433d 0bb9 b43e 5f6f ab3e
00000220: 40df aa3e c0d4 14be 507f 90bd 9e7a a5be
00000230: d05e c63d 3712 ae3e f6b6 93be 82eb 973d
00000240: 2283 cf3d b248 003e 1ecd 96bd 1d15 0a3e
00000250: 9d7d 803e e198 e4be 1ade 96be 7c6e cbbd
00000260: c39e 5fbe ef31 843d 1bb2 4e3f cbba b5bd
00000270: 03d6 01bc 7510 773d c165 f53b 47e7 90be
00000280: 254b 0a3c c1b5 463d 669b c8be 5432 4e3d
00000290: 06e9 a23e 7177 f7be d53b e7be df45 86be
000002a0: 0e82 093e 5ddc 163e 8fcd 283e 60ae d83e
000002b0: a1b0 56be 8518 d7be 72f9 ba3d 1811 a03e
000002c0: d8ab 58be 5754 f43d 5759 813d ef71 45be
000002d0: 4ca6 98bd 784a cfbd f627 193d 4479 e93d
000002e0: 40a5 f8bc 26bc e53d 2258 4abe 9231 883e
000002f0: 60d9 6c3e a786 283e 7088 2bbd 8ae9 743e
00000300: 49db 443d 1b60 76be e1f5 1abe 0b55 7abe
00000310: 1573 a4bc 3b37 d33b 6081 a2bd 29d7 0d3d
00000320: 0815 a9bd 8322 8bbd 643e db3d 819c d2bd
00000330: c131 1abe 555e a7bc 9b49 78bc c15c 84bd
00000340: 8ef6 babd 6734 86bd fbdf 12bd a658 b13d
00000350: beaa bcbe 454b 26be d68c 68be 136a 433d
00000360: fc87 e13c 8959 b3bd 4afd 88be de2a 99be
00000370: 2c92 1f3e 3d09 86bd 495b b4be 4fbd 23be
00000380: 08f1 08bf a61b 133e ea42 1d3e 75c6 64bd
00000390: 25e1 58be 6ee6 42be 5ab2 ae3d 10ff b4bd
000003a0: 8bb3 30bb 4660 2fbe 5ecb 30bd edda 52bd
000003b0: 7654 723d 889b 353c c0fe 2e3d 8fcf d23d
000003c0: f0dc 3cbe 8b2e 0f3e dfa1 eabd f5fe 41bd
000003d0: fb6b afbe b0d2 2bbd e8e2 f13d 294a 72bd
000003e0: 67da cdbd 5287 2dbd 3a6f 34bd e848 4bbd
000003f0: 6d27 d1bd 9397 9e3d 4f4f 91bc c55c 893d
0.016396848 -0.12893 -0.019614752 -0.06221797 0.011635823 -0.054022245 -0.020138856 -0.006786767
-0.038269553 0.08570084 -0.07016236 -0.015352123 0.061563 -0.1710977 -0.0078885155 -0.029018655
-0.026382262 -0.07515356 0.024522964 -0.029403875 -0.081889614 0.06461995 -0.027916372 -0.0016924627
0.032446068 -0.08466929 -0.029486485 0.026717883 -0.03435784 -0.044739556 0.08101222 -0.07278594
-0.062846884 0.0022972766 -0.016620336 0.07933064 0.012931241 -0.013321355 -0.028872937 -0.038877565
0.09149674 0.04498253 0.043242034 0.04734401 0.035062376 -0.037435155 -0.113524005 0.018928947
0.03401218 -0.042641714 0.021728572 -0.035598356 0.11733827 -0.10153231 0.03718618 0.040734276
0.0223888 0.031537447 -0.06106767 0.04562692 0.10146744 0.055316348 -0.00041074993 0.03060917
-0.0884207 -0.18503763 -0.20348749 -0.3263175 -0.08146102 -0.092745714 -0.09404612 -0.09265878
-0.064067595 -0.063083015 0.15538837 -0.04594246 -0.05509383 -0.23486587 -0.043023035 0.14950578
0.09234332 0.21824864 -0.037039164 -0.01307316 -0.27104717 0.02714249 -0.21735756 -0.2362932
-0.2060339 -0.027619015 -0.5291306 -0.21015608 0.14520507 -0.19306932 -0.053011127 -0.09088571
-0.25999603 -0.12547709 0.06412989 -0.057372507 0.030924862 -0.11707498 -0.079315096 -0.24887988
-0.1296627 0.0920271 -0.027754828 -0.0077205524 0.08188875 0.06857506 0.18167695 -0.15472057
-0.092342 -0.041449286 -0.17482506 -0.47672874 -0.11130324 -0.07079801 -0.11355608 0.08359765
-0.07142581 0.081140235 -0.027080575 0.045867257 -0.031090535 0.019222649 0.09320178 -0.22307284
-0.010561822 -0.040330917 -0.007703506 -0.28191426 0.10912657 0.047684863 0.35297427 0.33483407
0.3337345 -0.14534283 -0.07055533 -0.32320112 0.09686053 0.33998272 -0.28850526 0.074179664
0.101324335 0.12527731 -0.07363342 0.13484617 0.25095835 -0.44647887 -0.29466325 -0.099331826
-0.21837907 0.064548366 0.8074052 -0.088735186 -0.0079245595 0.06031843 0.0074889367 -0.2830145
0.008440767 0.048513178 -0.3918106 0.050340965 0.31818408 -0.48333314 -0.45162836 -0.26225182
0.13428518 0.147325 0.16484664 0.42320538 -0.20965816 -0.42010894 0.09129609 0.31263041
-0.21159303 0.11930149 0.06315868 -0.19281743 -0.074535936 -0.10121626 0.037391625 0.11400083
-0.030352235 0.11217527 -0.19760182 0.2660032 0.23129797 0.16457616 -0.041878164 0.23917213
0.04806069 -0.24060099 -0.15132858 -0.24446504 -0.020074407 0.006445793 -0.079348326 0.03462902
-0.082559645 -0.06793692 0.107052594 -0.10283757 -0.15058042 -0.020430723 -0.015154268 -0.06463004
-0.09129058 -0.06552964 -0.035858136 0.086594865 -0.36849016 -0.1623965 -0.22709975 0.047708582
0.027530663 -0.08757312 -0.26755744 -0.29915518 0.15583104 -0.06544731 -0.35225895 -0.15990184
-0.53492785 0.14366016 0.15357557 -0.055853326 -0.21179636 -0.19033214 0.085301116 -0.08837712
-0.0026962485 -0.17126569 -0.043162696 -0.051478315 0.05916258 0.011084445 0.042723417 0.10293495
-0.18443656 0.13982598 -0.11456656 -0.047362287 -0.3426207 -0.041948974 0.11810857 -0.059152756
-0.100514226 -0.04236538 -0.044051386 -0.049630076 -0.10212598 0.07743754 -0.017738013 0.067071475

net_container.2.bias f4 [64]
00000000: 0771 823c e03a 19be ff72 a1be 25d9 b7bd
00000010: 9d25 c6bc ec80 85bd b537 89be cdb4 86be
00000020: cea6 2fbd 9b39 b5be da9d 8f3c 6a73 babc
00000030: 7ac6 fc3c 0703 78bc 7a2d 87bc 9374 5f3c
00000040: 858c 1fbe 3f27 c23c 4583 40bb 6e77 e1bb
00000050: a908 dd3c da32 7bbe f9ab 25bf 5bf6 b23c
00000060: 4ebe acbe 0567 90be 1316 4abc 7a1a d13c
00000070: 7619 56bd 2786 bcbe 3cb3 b13c 6406 4ebc
00000080: 0ce1 28bd ea28 68be f6ef c5bc 5a2e 9ebc
00000090: 8db8 d0bb 62a6 16bd 4e7e 2fbc 721e 12bd
000000a0: eab5 fabc de75 20be ea8a 2cbd 0a70 803c
000000b0: d94e 26bc 0fa6 a63c bf7d 013d 5923 6cbe
000000c0: ea0f 443c c69c c1be b35c f33c 5d4e 20bd
000000d0: e6cf c4bc b2d6 91bd b717 f7bb 5487 f4bd
000000e0: 37b6 293d 2bc0 6dbd 40cd 5e3c 5fbd 6b3c
000000f0: b863 89be 93aa 2dba 8526 453c 39fe 1d3c
0.015923036 -0.14963865 -0.31533048 -0.08976964 -0.024187857 -0.065187305 -0.26800314 -0.26309815
-0.042883687 -0.35395512 0.017531324 -0.022760112 0.03085636 -0.0151374405 -0.016501177 0.013638633
-0.15580948 0.023700355 -0.0029375118 -0.006880692 0.026981669 -0.24531117 -0.64715534 0.021845987
-0.3373894 -0.28203598 -0.0123343645 0.02552532 -0.052270375 -0.368211 0.02169191 -0.012574766
-0.041230246 -0.22671857 -0.024162274 -0.019309212 -0.0063696564 -0.03677977 -0.010711266 -0.035673566
-0.030604322 -0.15669963 -0.042124666 0.015678424 -0.010150635 0.020342855 0.03161406 -0.23060359
0.011966685 -0.3781492 0.029707288 -0.039137233 -0.024024915 -0.07121028 -0.007540669 -0.11939874
0.04143354 -0.058044594 0.01359874 0.014388411 -0.26833892 -0.0006624844 0.01203311 0.009643131

policy_layer.weight f4 [4, 64]
00000000: 682b cc3b 1622 4bbb be39 86bd 9741 49bc
00000010: 8c04 3abb 6286 923b 4a40 133b 1a8f 69bb
00000020: 642b 6dbb 1416 473d 0476 8cbc 9ca8 19bb
00000030: 77be d0ba 82a1 5abc 7a3a c43b 10c3 99bb
00000040: 2c84 3f3c 5a6c c2ba 0d74 9f39 415f 04bb
00000050: 5b77 533b 692e 0dbd e81c c93c 52e3 88ba
00000060: f882 7f3d 6996 4abc 061a 57bb 4be1 c6bb
00000070: 5565 3e3a 8fa2 a43b 7d69 0fbc 330a 893b
00000080: 5af8 99ba 5706 cb3c d1e6 71bb 3e2c 113c
00000090: e8a4 283b be10 483b c4a8 53bc aef7 81bb
000000a0: 7a75 cbbd dd6a fb3c aaaf 533a 353e 96ba
000000b0: 2435 b7bb ed28 51bb 29c2 c8ba 0d47 983c
000000c0: 2d56 693b c2f6 6a3d f2a9 163c 8351 943b
000000d0: 5858 4bbb 8afe 143b 898f 103b 049b 5dbc
000000e0: 86a2 6b3b 6cb3 f1bb cce4 123b 2d2c 02ba
000000f0: 45a7 4a3b eb5b 66bb dce6 673a 5d2f 323b
00000100: a9fb 79bb c35a a93d ce9d 813d 6414 e53c
00000110: fef5 d3ba 93f7 0bbb 996c 35bd c194 9cbd
00000120: cba6 88bb 8fc2 2c3d ccaa 81bd d163 15bc
00000130: ce58 fcbc 306c 94bd b565 943b fb30 4a3b
00000140: 9876 14bc 71e4 363a 6c6d 8fbc e1fe 873c
00000150: 9c03 7b3b 83c4 e83d b798 39bd f62a 5e3c
00000160: eb8d 18bd b156 3dbd 04d4 31bc 00bd b4bc
00000170: d891 893b 35b5 da3c 32dd 2fbc 3778 2d3c
00000180: 790d 413c 7adb 193c 336d 71bb 648e 813c
00000190: d710 02bb e57e bb3b 2410 babb 1466 ac3a
000001a0: 6ea3 05bb 814a 6ebd a943 ae3b 04f2 22bc
000001b0: 210b 26bc 75b5 053c 2a84 803a 8881 2d3b
000001c0: d79d cc3c c84d 843c 3c00 813c 0b96 943a
000001d0: 31fd ec39 91e0 7dba 00dc 35bc ee27 62bd
000001e0: 044a 30bb e99c 52bc 2601 8b3b bf30 383b
000001f0: 6ed3 903d 4975 f4bb 3d57 be3b 7a67 8abb
00000200: 901a f7b9 48b0 543d a68d 4ebc 0f50 c5bb
00000210: 5c0d debb c420 3ebc 00fc 9ebd 6987 2cbc
00000220: 2937 72ba 6114 debd ddde 163e e99b 033c
00000230: afd2 29bc 2808 133d 2d7a 683b 43a0 f8bb
00000240: 1bf4 153c e120 23bb b1bf bf3c fe02 4ebc
00000250: fd19 80bb a0ec d33c fb07 e7bc 26a4 91bb
00000260: cbeb ce3d 651f 783c 246f 683b fa33 863c
00000270: 02fc 3e3b 0523 6fbd 5950 7a3b 00c0 19bc
00000280: a545 22bb c468 5a3d c83c 00bc 5d15 ccbb
00000290: 2b8f a6bb c94c 97bb a1f4 68bc 6206 873b
000002a0: 66e9 d63d b41d 91bc f624 4ebb 0d77 edbb
000002b0: ada8 07bb 560c fc3a cd38 3cbb 7e29 863d
000002c0: d1be 573b a143 d2bd 085f 5b3c e4b0 043c
000002d0: 8036 1dba 6d7f 453c e762 5a37 29c4 3bbe
000002e0: 7804 0c3c 0425 27bc 9c2b fbbb fb95 fbb8
000002f0: ae3d 9b3d 974b 65bc 3f38 b43a 7028 d73a
00000300: 6fca 4bbb 4316 0dbd ca2c 433d 8f59 97bc
00000310: d2ea 153c 1d84 8fbb ca99 13bc 03a4 9c3d
00000320: ea57 c3bb b691 acbc 6865 f0bc 0b4c 4639
00000330: 5ddb b13b a80b ddbb 8f9e 3b3b 050e 67bc
00000340: 5bc2 bb3c 13c2 823c bf21 2339 c35f ab3c
00000350: 25b0 363c c65e 423d 0c24 2f3b d415 9d3b
00000360: f4f1 f33c 0387 f53b 7d77 bab7 3b54 6fbb
00000370: 5f4b 333b b906 2fbd c824 83bb a6ac 8f3c
00000380: 6b96 f1bb c9e9 e4bd efaa 0fbb 4aac 95bb
00000390: b899 ac3b 85ab 9f3b a743 293c 431a 553c
000003a0: 7e54 183c c0c0 783d f998 3b3b 9495 f43b
000003b0: 91ab 5b3c 9694 173c 3529 ac3b 502c 7d3d
000003c0: 26ca e3bc 3f3a 383d f7fa 1e3c e83d 113c
000003d0: f73d 5f3b e041 b6bb 8666 873b 6c21 8cbc
000003e0: 3a7f 513b 8643 8f3a 543b 3a3c 5cc8 b83b
000003f0: 500c cb3b bcd6 2d3c 3f9e cd3b eb0a 9ebb
0.0062307604 -0.0030995659 -0.06553982 -0.012283704 -0.0028384058 0.004471586 0.002246874 -0.0035638274
-0.0036189193 0.04860504 -0.017146118 -0.0023446446 -0.0015925904 -0.0133441705 0.0059884163 -0.0046924427
0.011689227 -0.0014833317 0.00030413308 -0.0020198377 0.0032267186 -0.03446809 0.024549916 -0.0010443723
0.06238076 -0.012364962 -0.0032821908 -0.0060693375 0.00072630245 0.0050242613 -0.008753178 0.004182124
-0.0011746988 0.024783297 -0.003691126 0.008860646 0.0025733057 0.0030527557 -0.012918655 -0.0039662933
-0.09934516 0.030690605 0.0008075187 -0.0011462631 -0.0055910517 -0.0031915263 -0.0015316653 0.018588567
0.0035604343 0.057364233 0.009195792 0.0045263185 -0.0031027999 0.0022734725 0.002205821 -0.013525728
0.0035955026 -0.007376125 0.0022414206 -0.0004965689 0.0030922454 -0.0035150002 0.00088463514 0.0027188875
-0.0038144386 0.082692645 0.06328927 0.027963825 -0.0016171334 -0.0021357283 -0.04429302 -0.0764556
-0.004170274 0.042177733 -0.06331405 -0.009118036 -0.030804064 -0.07247198 0.004528726 0.0030851949
-0.009061478 0.00069767894 -0.017508231 0.016601028 0.0038301712 0.11365607 -0.045311656 0.013560047
-0.03724472 -0.046225253 -0.010853771 -0.022062778 0.004198294 0.026697734 -0.010733889 0.0105877435
0.011782997 0.009390706 -0.003683877 0.015814967 -0.0019846463 0.005721914 -0.0056781936 0.001315298
-0.00203916 -0.05817652 0.0053181243 -0.009945396 -0.010134489 0.0081609385 0.0009805013 0.0026474912
0.024977608 0.01615037 0.015747182 0.001133622 0.0004520207 -0.0009684647 -0.011099815 -0.05521386
-0.0026899586 -0.012854793 0.0042420803 0.0028105227 0.07071577 -0.0074602705 0.0058087395 -0.004223761
-0.00047131302 0.051925927 -0.012607014 -0.0060215066 -0.006776495 -0.011604492 -0.07762909 -0.010530331
-0.0009239787 -0.10843731 0.14733453 0.008032777 -0.010365172 0.03589645 0.0035473213 -0.007587464
0.009152438 -0.0024891424 0.023406835 -0.012573956 -0.003909348 0.025869668 -0.028202048 -0.004444617
0.10103568 0.015144204 0.0035466636 0.016382206 0.0029141908 -0.058383007 0.0038194864 -0.009384155
-0.002476075 0.05332257 -0.007826991 -0.0062281326 -0.005082985 -0.004617308 -0.01421848 0.004120634
0.10493736 -0.017714359 -0.0031455136 -0.007246858 -0.0020699904 0.0019229751 -0.002872038 0.06550883
0.0032920132 -0.102668054 0.013389356 0.008098815 -0.0005997196 0.012054306 1.301684e-05 -0.18336548
0.008545987 -0.010201696 -0.0076651108 -0.00011996549 0.07580124 -0.013995073 0.0013749673 0.001641525
-0.0031096002 -0.03444506 0.047650136 -0.018475322 0.009150224 -0.004379763 -0.009008834 0.0764847
-0.005961408 -0.021065574 -0.02934523 0.0001891108 0.0054277615 -0.0067457743 0.0028628444 -0.014102464
0.022919824 0.015961682 0.00015557463 0.020919686 0.011150395 0.047453664 0.0026724366 0.004793862
0.029778458 0.0074929013 -2.2228569e-05 -0.003651871 0.0027358157 -0.04273102 -0.0040021874 0.01753838
-0.0073726675 -0.111774035 -0.0021921953 -0.0045676576 0.005267348 0.0048727416 0.010331071 0.01300675
0.009297488 0.060730696 0.0028625114 0.00746412 0.013407604 0.009251734 0.0052539357 0.061809838
-0.027806353 0.044977423 0.009703389 0.008864857 0.0034064034 -0.005562052 0.004132095 -0.01710578
0.0031966702 0.0010930158 0.011366684 0.005639119 0.006196536 0.010610279 0.006274968 -0.004823079

policy_layer.bias f4 [4]
00000000: a2fe 34bf 7607 113c d327 9abc 5eac d33a
-0.7070104 0.0088518765 -0.018817818 0.0016149392

value_layer.weight f4 [1, 64]
00000000: 9e0d 33bc 8257 1dbb 05a7 18bc 1d76 8e3d
00000010: 42ec 683b 1d67 5ebb 44c3 bebc 3d9b d3bd
00000020: 8061 ffba 314e cbbc 536e b4bc 24f7 f3bb
00000030: 774f 043d da6a b33d d985 23bc 8747 ec3b
00000040: 30c8 153d 88a8 51bc b339 abbc 9d12 733b
00000050: 5e2e b73a 23fc 6fbc 2db4 93be b3ae c03b
00000060: 38a6 edbc 5825 f7bd c4e3 b4bb 28e0 5c3d
00000070: c64f 893b 2480 2cbe 2306 5dbb 1902 2b3b
00000080: 9109 453b cadb 283c d58f cd3b 5e02 043b
00000090: 99d7 66bb 3c2d 9eba 4ecd f73b 24df 953b
000000a0: 13b4 4b3d b215 473d cb56 0b3c cba9 a4b8
000000b0: 07bb 21bb f639 9aba f9c3 1c3c 5fb6 e5bc
000000c0: 8519 243b c0f6 203d c06e 41bb f535 49bc
000000d0: 4a4b 8c38 44e4 ddbc f4b5 72bc 75c7 85bc
000000e0: 7c49 d53c 693f 1a3c 4182 6cbb 4b21 ceba
000000f0: 42fa fb3c cf5b 1c3c 504f e0ba 5be3 d83b
-0.01092854 -0.0024008458 -0.009317164 0.06956122 0.0035541211 -0.0033935972 -0.02328647 -0.10332344
-0.0019484013 -0.024817558 -0.022025263 -0.007445233 0.032302346 0.08760615 -0.009980642 0.007210675
0.036567867 -0.012796529 -0.020901537 0.0037089952 0.001397561 -0.014647516 -0.288484 0.005880201
-0.029009923 -0.1206767 -0.005520316 0.05392471 0.004190418 -0.16845757 -0.0033725582 0.002609378
0.0030065516 0.010306308 0.0062732496 0.0020143013 -0.003522372 -0.0012067924 0.007562316 0.0045737196
0.04973228 0.048604675 0.00850458 -7.851756e-05 -0.0024678127 -0.0011766541 0.009568208 -0.028041063
0.0025039625 0.03929782 -0.0029515475 -0.012280931 6.689744e-05 -0.027086385 -0.014813889 -0.01633046
0.026036017 0.009414532 -0.003608838 -0.0015726475 0.03075898 0.009543373 -0.0017113481 0.0066188998

exp_avg f4 [4]
00000000: 3236 ad37 4422 86b7 9f59 083a 7da4 baba
2.0648444e-05 -1.5990001e-05 0.0005201343 -0.0014239695

exp_avg_sq f4 [4]
00000000: 00e9 a238 4a66 9638 11cf 8e38 f4e7 9038
7.7681616e-05 7.17161e-05 6.809657e-05 6.90966e-05
